net/pytorch/unet_simp_small.pth (torch, 608847 bytes, 17 tensors)

inc.double_conv.0.weight f4 [64, 3, 3, 3]
00000000: 5ecd 35be 99cb 993d 1c2d 213e bff8 8b3d
00000010: 6417 923d 7bd4 3f3e 6edb 47bd d1bd 90bd
00000020: bafd 24be 9478 47be b47f 3dbe a4d1 acbd
00000030: f9f3 82bd 4c7c 1b3e 1947 213e 45e2 d3bd
00000040: d91a f13c 8ad0 333d 5e49 f93d a599 023e
00000050: f8e3 2c3e 2b25 08be b4cc 58bc 18c3 34be
00000060: 6d24 233e ecef 013c 4e55 cdbd 9f47 c13c
00000070: 43a1 023e 6eb0 8cbd ad86 47be e442 8d3d
00000080: f763 0dbe 182d 1e3e 7734 d5bc 5220 153e
00000090: b55d 3a3e c2f1 42bd 917a e73d bf4d 343d
000000a0: 1fca 5cbc 9d94 99bd 96bd dbbd a4db 7abd
000000b0: ae69 f6bd e34b 133e e211 0c3e e65f 3fbd
000000c0: a082 cabd 7cfc 033e 835f 0cbd 8625 12bd
000000d0: e0bb babd 4fbf 073e a27c 413e 24ec 043e
000000e0: b3e5 cf3d 0d2d 65bd c2ec 6abc 9c2d 25be
000000f0: 7be9 10be ed76 38be 1cee e33d cb80 dfbd
00000100: c979 9ebd 17dc f4bd 21b9 443b 4f3b 433e
00000110: 9bf7 82bc e4a5 19bd a63c 353e 25e0 4b3d
00000120: 8742 23be a18b 293e 302b cebd 23da 10be
00000130: dcfb 0e3d baea c83d 3e45 b9bd 1680 f73b
00000140: 0d62 203e b7c6 3b3c 89aa fabc a9f4 5a3c
00000150: 51ca 6cbd 0f03 0abe e286 fc3c 5a31 08be
00000160: 2af0 b83d a24e 3abe df67 283e 9875 6abd
00000170: 0b02 da3d 3fd9 08be 1db2 2a3e 7e7a 433e
00000180: 7859 c4bc defc 31be f99d 823d af66 53bc
00000190: 3b9a f9bc 4916 71bd a8cd 6a3d 5202 16bd
000001a0: 49c6 133e 1aa9 8a3d 009f 20be 83d7 16be
000001b0: de64 dfbd 4e5e d0bd aee4 19bd e25a 13be
000001c0: 8205 c23d b64e 17be 1626 cdbd 8d17 343e
000001d0: f972 353c 1e30 0dbb 58ba c93d 6e4b 6ebc
000001e0: 1527 9ebd 64b9 c63d 1d03 8b3d c3b9 253d
000001f0: c7c4 903b 0b8f 89bc 0594 b8bb 97a5 8fbd
00000200: f41a 1dbd e45f 2d3e 3adf 543c f689 e3bd
00000210: 9c0d 02be e469 a63d d0f9 f8bd b977 81bd
00000220: 1bb0 4cbc 6725 1fbc 1c6a 313e 1695 e23d
00000230: 96a7 633a a3ab 89bd 864d f3bd a5ec 12be
00000240: 55ed 4c3e 7681 a0bc 6d72 273d 5e74 48bc
00000250: 1f85 1a3d 2e1c d0bd 8747 cf3d d0ff 333e
00000260: 61d7 0ebe 11fb 093e 4326 bd3d 7b62 eb3d
00000270: 01ea dd3d f3c4 81bc 48dc 933d 42b6 16be
00000280: a4cf 9abc 993b 013e a568 cbbc da11 a2bd
00000290: 3520 243e aef4 18bd e567 ba3d 5faa 1fbe
000002a0: 608a 113d eec2 c23d da85 13be b433 c53d
000002b0: b283 da3d dd02 e23d 1a1d cd3d 3d44 853c
000002c0: 0208 28be 5e08 2cbe f42d 43be 64fa 913c
000002d0: 2acc ec3c f990 1ebe ed30 b23d de98 2e3e
000002e0: 54c8 c2bd 8425 16be 6b7b 87bc 470d 143e
000002f0: f78f 803d c602 813d 6d88 023e 8d22 3bbd
00000300: d869 043e ec12 083e 97e0 83bd db7f f7bd
00000310: 0e73 1ebc f322 0f3d b34f c4bd 1311 86bd
00000320: f99a 80bd 99ac 363e 5b97 253e 6806 4ebd
00000330: 02dc 46be 675d 153e 5c1d e83d 5980 d33d
00000340: ce15 193d ca57 bc3d 5af3 95bd c066 273e
00000350: 105b d2bd 6470 303e 16c8 e93d 266e 78bc
00000360: 5932 693d f48e 34be d63b 0dbe 0aa2 0bbd
00000370: 21f8 82bd f928 943d 036b b2bd 607e cc3c
00000380: 3267 0ebe 665e 8b3d 982a c9bd f301 2f3d
00000390: 6949 42be 098a 1fbe 1c55 29be 941b 1cbe
000003a0: 26ab 1abe 29ee 023e 6c88 04be 6239 013e
000003b0: 9883 24be 116a 5d3d 55b8 5c3d 2019 4bbd
000003c0: 0708 d4bd f619 ea3d aaca 273e 7fcf 4bba
000003d0: 87a6 333e f644 273e c3d1 b83d 158c c0bd
000003e0: fe70 fabc c57a ecbd af8a 45be 1c4f 44be
000003f0: 5a1c 013e 83d1 943c af79 35be e99d 033b
-0.17754123 0.07509536 0.15739864 0.06834554 0.07133368 0.18733399 -0.04879325 -0.070674546
-0.16112414 -0.1947959 -0.18505746 -0.08438423 -0.0639419 0.15184134 0.15749778 -0.10345892
0.029431747 0.04390005 0.12172197 0.12753923 0.16883838 -0.13295428 -0.013232399 -0.17652547
0.15931864 0.007930737 -0.10026036 0.023593722 0.12756829 -0.06869589 -0.19484968 0.06897524
-0.13807665 0.1544689 -0.026025994 0.1456311 0.18199809 -0.04759384 0.113026746 0.044019457
-0.013475924 -0.07499049 -0.1072952 -0.061244622 -0.120318756 0.14384417 0.13678697 -0.046722315
-0.09888196 0.12889284 -0.034270775 -0.035680316 -0.091178656 0.13256572 0.188952 0.12980705
0.101512335 -0.055951167 -0.014338674 -0.1613068 -0.14151566 -0.18014117 0.111294 -0.10913237
-0.077380724 -0.11956041 0.0030017572 0.19065593 -0.015987208 -0.03751172 0.17698917 0.049774308
-0.15943347 0.1655717 -0.10066831 -0.14145713 0.03490816 0.098103955 -0.0904641 0.007553111
0.15662403 0.0114609515 -0.030598896 0.013363996 -0.05781013 -0.1347773 0.030826036 -0.13300076
0.09030183 -0.18194059 0.16445874 -0.057241052 0.10644921 -0.13364123 0.16669507 0.19089696
-0.023968443 -0.17381617 0.06377787 -0.0129029 -0.03046905 -0.058859143 0.057325035 -0.036623307
0.14431109 0.06770535 -0.15685654 -0.14730649 -0.10907911 -0.10174237 -0.0375716 -0.14390138
0.09473707 -0.1477612 -0.1001703 0.17587109 0.011074775 -0.0021543573 0.098499954 -0.014544351
-0.07722298 0.09703329 0.06787703 0.04046036 0.004417989 -0.016791841 -0.0056328797 -0.07014006
-0.038355783 0.1693111 0.0129926745 -0.11110298 -0.12700504 0.08125666 -0.12157023 -0.063216634
-0.012493159 -0.009713507 0.17325634 0.11063592 0.0008684335 -0.0672219 -0.11880021 -0.14348085
0.2001241 -0.019592982 0.04088061 -0.012234775 0.03772461 -0.10161625 0.10121065 0.17578053
-0.13949348 0.1347468 0.092358135 0.11493393 0.10835648 -0.015840983 0.0721975 -0.14717963
-0.018897839 0.12620391 -0.024830172 -0.07913561 0.16027911 -0.03734272 0.091018476 -0.15592335
0.035532355 0.09509836 -0.14406529 0.09629002 0.1066965 0.110357024 0.10015316 0.01626789
-0.16409305 -0.16800067 -0.19060498 0.01781959 0.028905947 -0.1548499 0.08700738 0.17050502
-0.09510866 -0.14662749 -0.016538342 0.1445819 0.06277459 0.06299357 0.12747355 -0.045687247
0.12931001 0.13288468 -0.064393215 -0.12084933 -0.009670986 0.03494544 -0.09585514 -0.065462254
-0.06279559 0.17839278 0.16171019 -0.05029908 -0.19419864 0.14586411 0.11333725 0.10327215
0.03737431 0.09196432 -0.07321806 0.1634779 -0.10271275 0.17230374 0.114151165 -0.01516298
0.05693278 -0.17632657 -0.13792357 -0.03409008 -0.06394983 0.072343774 -0.08711817 0.024962604
-0.13906553 0.068051144 -0.09822577 0.04272647 -0.18973316 -0.1558 -0.16536373 -0.15244895
-0.1510435 0.12786163 -0.12942666 0.12619546 -0.16065824 0.05405623 0.05388673 -0.049584508
-0.103530936 0.11430733 0.16385904 -0.0007774755 0.17543994 0.163349 0.09024384 -0.094017185
-0.030571457 -0.11546854 -0.19291185 -0.19170803 0.12608472 0.01816631 -0.177222 0.0020083135

inc.double_conv.1.weight f4 [64]
00000000: 1326 833f af90 813f dd3a 833f ba0a 7e3f
00000010: ebc9 7f3f 31b9 813f 630a 803f b180 7d3f
00000020: 793a 7c3f 4e4f 803f f255 803f 1798 7f3f
00000030: ec2f 813f 5960 7f3f 3877 7f3f d385 813f
00000040: ffc2 7c3f 3c0f 803f 8123 823f b785 7a3f
00000050: bf5e 803f cc51 7f3f 640b 833f 90da 823f
00000060: 2ece 7d3f 5050 7f3f 130c 813f ed8d 803f
00000070: ce96 813f 4e75 7d3f fcc2 7f3f 8d91 813f
00000080: ebe8 7d3f d6d1 7a3f 34e9 7f3f 4952 7c3f
00000090: 1950 7d3f e264 813f ee67 813f 602c 793f
000000a0: cdb5 823f ce87 7d3f b047 7b3f 2616 813f
000000b0: 9493 7b3f cb28 803f 9c43 803f 27c9 823f
000000c0: 631e 7d3f 8013 823f c591 7e3f f57a 803f
000000d0: 0ff3 813f 7587 783f 6c65 803f 5632 843f
000000e0: 0c9c 7b3f 79ca 7c3f 1041 7a3f d9f5 7c3f
000000f0: 8a44 7f3f c21b 803f 9e51 813f 2822 823f
1.0245994 1.0122279 1.0252339 0.9923512 0.9991748 1.0134641 1.000317 0.9902449
0.9852672 1.0024202 1.0026228 0.99841446 1.009275 0.9975639 0.9979129 1.0118965
0.9873504 1.0004649 1.0167085 0.9786028 1.0028914 0.9973419 1.0237851 1.022295
0.9914273 0.9973192 1.008181 1.0043312 1.0124147 0.9900712 0.999069 1.0122544
0.9918353 0.97976434 0.99965215 0.9856306 0.98950344 1.0108912 1.0109842 0.97333336
1.0211731 0.99035347 0.9815626 1.0084884 0.9827206 1.0012449 1.0020633 1.0217637
0.9887449 1.0162201 0.99441177 1.0037524 1.0152301 0.9708169 1.0030951 1.0327861
0.98284984 0.9874645 0.9775553 0.98812634 0.9971396 1.0008471 1.0103033 1.0166674

inc.double_conv.1.bias f4 [64]
00000000: 460c 0e3d 539d 453b 70e9 833c 5e68 49bb
00000010: 9b2e 5cb9 b3a0 46bb 17f4 293d 163f f0bb
00000020: b6d9 35bb 5ec0 033c 4808 77bc 5405 f1bb
00000030: 735c 47bc 32b7 09bd fbbc 8b3c 2a8f 873c
00000040: a7c2 af39 2d14 a239 b781 b33b 4287 613c
00000050: 59f0 413b 2070 51bc 4266 99bc b73d 143c
00000060: ff4a cfbb 8b11 a43a f817 7e3c 6e35 6dbb
00000070: 0c2a 27bc 4c7d 05bd c380 0bbb 3e2f 583a
00000080: 28fb d4ba 034d babc b813 26ba ea53 05bd
00000090: 162b a6bc 3fbf acbc b655 db39 5b6a 4fbc
000000a0: c8fd 2dba d697 5ebc 9733 243c b2d5 3abb
000000b0: e51e 833b b061 1fbb 0891 03bc 8c7c dcbc
000000c0: 3fde 1dbc 5d07 f5bb c123 45bc 3c8c 80bc
000000d0: cfea 61bd 97ec 4cbc 1c48 783c 9635 633b
000000e0: 88c2 52bc 6df0 25bc 5717 eabb b8c0 b43b
000000f0: fb91 7fbb 528c d13b 2f16 1c3c 77f1 863c
0.034679674 0.0030153587 0.016102523 -0.0030732374 -0.00020998197 -0.0030308187 0.041492548 -0.007331739
-0.0027748174 0.008041469 -0.015077658 -0.0073553715 -0.012168038 -0.033621974 0.017057886 0.016547758
0.00033523628 0.0003091408 0.0054781097 0.013765158 0.0029592721 -0.01278308 -0.018725518 0.009047917
-0.006326079 0.0012517435 0.015508644 -0.0036195177 -0.010202896 -0.032590196 -0.0021286465 0.0008246786
-0.0016249167 -0.0227418 -0.0006335336 -0.03255073 -0.020284217 -0.021087287 0.00041834795 -0.012659634
-0.00066372426 -0.013586005 0.010022066 -0.002850872 0.0040014856 -0.00243197 -0.008030184 -0.026914857
-0.009635507 -0.0074776844 -0.01203245 -0.015691869 -0.05515557 -0.012507579 0.015153911 0.003466939
-0.012863763 -0.010128123 -0.0071438956 0.005516138 -0.0038996923 0.0063949013 0.009526773 0.016472561

inc.double_conv.1.running_mean f4 [64]
00000000: 4e6e a43c ef3f 1d3e c46e 453c 0749 2cbe
00000010: 8570 71be cb6e d33e 9660 25bd 52e9 153f
00000020: da96 39bf ba09 b33d 3390 61bd 9739 583e
00000030: c752 153e 9a99 84bc 818b 413d fe7b 96bd
00000040: 140f 353e aafd febd 917f 303d 1226 253f
00000050: 7ab9 2f3f 0fe8 f03d 84c3 2c3e a93c 26bd
00000060: a6b3 393f 58de 093f dd94 ec3c 7cb8 bd3d
00000070: 7497 b53d e518 a2be d32b 783e 7001 1bbc
00000080: 82e1 a8bc 7240 453f 8309 8f3e 0f79 f93e
00000090: 9703 58be 62e6 29bd 8a2c 133c 2d76 53be
000000a0: 2660 7d3b 032e e3be e6e5 94be 4b4d f03d
000000b0: 5459 913f cb2d 28be 2558 1d3e 93b6 003e
000000c0: 9a6b f43e 6167 943d fd8d e63e 9e68 bd3d
000000d0: 67f4 0c3d 0ab9 8fbe b56a aebd d791 2b3e
000000e0: 0be1 2cbe 9d2c 38bf dbe0 17bf 34b4 c53e
000000f0: 87a8 3dbe 43da 4bbd 3898 9abd 3831 90bd
0.020072129 0.1535642 0.012050334 -0.16824733 -0.23578079 0.41295466 -0.040375315 0.58559144
-0.72495806 0.087420896 -0.05506916 0.21115719 0.14582358 -0.016186524 0.047252182 -0.073478684
0.17681533 -0.12450726 0.043090407 0.64511216 0.6864239 0.11763012 0.16871458 -0.040585194
0.72539747 0.53854895 0.028879577 0.09263703 0.08866778 -0.31659618 0.24235468 -0.009460792
-0.020615343 0.7705146 0.27936944 0.48725173 -0.2109512 -0.041479476 0.008982787 -0.20650549
0.0038662045 -0.44371042 -0.2908165 0.117334925 1.1355386 -0.16423719 0.15365656 0.12569647
0.47738343 0.072462805 0.45030203 0.0924847 0.034412768 -0.2807086 -0.085164465 0.16754852
-0.16882722 -0.71943074 -0.5932748 0.38614047 -0.1852132 -0.049768697 -0.07548565 -0.07040638

inc.double_conv.1.running_var f4 [64]
00000000: 1747 c93b 284b 533c 9e51 e83b 2970 523c
00000010: bfd8 263c 20d1 d73c 067b fe3b 11a0 123d
00000020: 805e 563d fe5d 9f3c 111c d93b bcfa 5a3c
00000030: b9be e73b bcb6 183b 6243 843b fd0c 0f3c
00000040: c0e7 d93b bcfd 8b3c 6243 c53b aedb 4e3d
00000050: fff6 7e3d 0240 7c3b fa8a 843c e1bf 043c
00000060: d404 6d3d 30bc 1b3d 9c03 a93b 2983 3a3b
00000070: 47de 253c d7af 923c 94d4 003c e589 be3c
00000080: ff8d e43b 106f 723d e10f 833c 994d ee3c
00000090: be5c c93b 9a3b 343c d965 0a3b a9a2 0e3c
000000a0: 332e a83b f299 033d abf1 783c ed78 ac3b
000000b0: d4b1 043e 13d3 2c3c 7c45 b43b a438 393c
000000c0: d63a bb3c 18bd fd3b 8ba0 c73c f594 7e3b
000000d0: 1ae9 a73b e094 2d3c f78a 243c f688 333c
000000e0: 68ce 993c f722 4b3d 461b 0d3d 1713 9d3c
000000f0: 54ba 223c 9e9e 403b f60c 093c 2791 1c3c
0.006142508 0.012896337 0.0070898077 0.012844124 0.010183512 0.026344836 0.0077661304 0.035797182
0.052336216 0.019453999 0.00662566 0.013365444 0.0070722965 0.0023302278 0.004036353 0.008731124
0.006649941 0.017088763 0.0060199955 0.05050247 0.062247273 0.00384903 0.01617955 0.008102388
0.057865933 0.038021266 0.005157901 0.0028459525 0.010123796 0.017906113 0.007863183 0.023259113
0.006974935 0.05918795 0.015998783 0.029089736 0.006145089 0.011000538 0.0021117835 0.008705773
0.0051324605 0.032129236 0.015194337 0.005263439 0.12958461 0.010548371 0.0055014472 0.011305008
0.022855204 0.007743489 0.024368545 0.003884611 0.0051242234 0.010594577 0.010042897 0.010957947
0.01877518 0.049593892 0.034449838 0.019174142 0.009932119 0.0029391418 0.008364907 0.009556091

down1.maxpool_conv.0.double_conv.0.weight f4 [128, 64, 3, 3]
00000000: cc30 b33c c675 6e3d 03ad 683d 09a2 1ebd
00000010: 6c02 323d 09d6 d63c bcf0 cfbc a320 d33c
00000020: 7a95 4abc 6e6a d33b d113 2c3c 2c30 bebc
00000030: 4a74 11bc c310 e0bc 6a65 d8bc aed3 e43c
00000040: 8174 1e3c 0546 d6bc 1999 c43a fea2 853c
00000050: 7565 08bc 3698 ab3c f931 853c 5e65 0b3d
00000060: 3e48 393d f3d6 71bc 1e49 2f3c 0263 cfbc
00000070: ab27 393a 4f72 08bd 335e f73c 3131 c7bc
00000080: a67a 1f3c 78c2 593c 8930 11bd 2ae1 bd3c
00000090: d0eb b5bc 2603 27bd 51d2 a43c 5cc3 173c
000000a0: 249c bc3c 244c a5bb d663 1ebc a590 3b3a
000000b0: da5b d23c 9754 0fbd 45ed d3bc 5425 b5bc
000000c0: 8546 08bd 5903 003d 2814 e0bb 277f 1fbd
000000d0: e8ba 83bc 95c1 ecbc 8607 283d c722 8b3c
000000e0: 1f14 833c 3a6d 143c 9e72 3abb 2d90 b03c
000000f0: 83dc 68bc d9b9 29bd 831b 99bb 12b5 533c
00000100: ecc7 c13c 7b00 923c 329e 1a3d 657d 703c
00000110: 687a f6bb 7646 773b d50f 373c b9b0 40bb
00000120: c514 34bb fdf2 60bb b4ba 9d3c 2e58 e13c
00000130: 7ceb 123a 1c0e 8ebb ba2d 6d3b f3b1 123d
00000140: 31fa c43c 5040 a8bc c90b 4dbc 2163 51bb
00000150: 8d73 08bd 2aa7 053d 2dc8 12bd 5f3b ce3c
00000160: df9b 9cbb f2a4 56bd 5e2a 033c 0589 403b
00000170: b8ef a7bc 9c99 0bbd c65c c1bc 9ceb fabc
00000180: 59c3 0e3d d7cf 163d 6121 a43c 54bc ebbc
00000190: 8a54 85bc 213b 0b3d 15ee ec3c 0e1b 8e3c
000001a0: 2c50 d7bc 106f 14bd 1212 9bbb b1f0 e1bc
000001b0: dd0e c4bb aefe 613c 7754 c2bc 299b 15bc
000001c0: 8c39 b4bc e199 c23c 8b1b 713b 045d 473d
000001d0: 7c3b d7bc bb1e 9ebc a96f 083d 4773 aa3c
000001e0: cb77 963a 7a10 2abd f1ef d93c fcc6 29bb
000001f0: baa1 8fbc b13d 7f3c 8043 483d 4511 3c3d
00000200: 7a3b 4a3c 4c74 0d3d 3fcf 403d 3528 883b
00000210: 56af cf3c 4705 253b 249a e1bb b1e6 20bc
00000220: caf7 053d d028 ba3a fc79 c63c 72d1 083d
00000230: 1845 6dbc 326b de3c 39de 913c 5412 c4bb
00000240: 6b8c dfbc f6f0 03bd 4937 d4bc 10b4 233d
00000250: cff2 82bb a5a3 bbbb 910f bc3b 9a04 d1bc
00000260: 1b86 fa3c 8fd1 0bbd 1f9e ecbc 452a 033d
00000270: 1e11 c63c b812 cebc 812f d93b c73e 68ba
00000280: f99a be3c b9ce b03c 7534 f93c 2ccd 053d
00000290: 9dd0 eebc dcdd 1ebd 3f0f 05bd b392 55bc
000002a0: 027a debc bd69 d13b 8342 b0bc c3ef 0fbc
000002b0: 57e4 5dbc 2c6a 08bd f557 a73b 9460 c3bc
000002c0: faa0 3c3c 07c2 10bd 4c77 983b 63df 283c
000002d0: 72ac 093b 1814 d23c 7df6 253c 22ca daba
000002e0: e945 093d 2b05 c3bb 4533 2f3c 3964 273b
000002f0: fc0d 1fbd f4f1 8cbc e544 163d 9acb babb
00000300: 0ffd 463c 8224 f0bc 72b2 8b39 76a6 d23c
00000310: f941 fb3c 254e 39bc a7d9 093c e91c 38bd
00000320: 82a1 c43b 322d 2a3c 30eb 5e3c a178 fbbc
00000330: 1f17 3d3d 432e fc3c 0747 233d fc28 1e3d
00000340: f427 2bbc 82b8 02bd f7d4 d33b 69b7 3c3d
00000350: 1356 043c 90c0 3a3d 0a34 a1bc c220 ad3c
00000360: c135 663c d419 29bd b334 43bd b7e4 ffbc
00000370: b08c 21bc f61c eb3c 919b f63a 1dfa 0c3d
00000380: 25d2 8b3c 35fb b93b c458 453c 1329 923c
00000390: 756f 1c3d 89a0 bdbb 3f8f 95bb 1652 6dbc
000003a0: 9f41 f5ba 437d 323c 9b9a c53c 82d0 193d
000003b0: 285d daba b5b8 863b 8cb0 a93c 1e5b 16bd
000003c0: 029c eb3c 2d36 3e3d 02ac 933b df57 22bd
000003d0: e8d9 a13c 89e9 f03c a2c8 dd3c acc9 cbbc
000003e0: d5fb 27ba 91e3 53bb 8232 b4bc 2eed 10bc
000003f0: dee5 2cbd 76a4 053d c3da d23c 61dc 1c3c
0.021873854 0.058217786 0.05680562 -0.038728748 0.04345934 0.026225107 -0.025383346 0.025772398
-0.01236474 0.0064518964 0.0105027715 -0.02321633 -0.008877823 -0.027351743 -0.026415545 0.027932968
0.009671331 -0.026156435 0.001499924 0.016313072 -0.0083249705 0.020946603 0.01625918 0.03403222
0.04523491 -0.014760721 0.010698585 -0.025315765 0.0007063101 -0.03331214 0.030196285 -0.024315448
0.0097338315 0.013290994 -0.035446677 0.023178656 -0.02220717 -0.040774487 0.020119818 0.009262886
0.023023672 -0.005044477 -0.009667357 0.00071550376 0.025678564 -0.03499278 -0.025869975 -0.022112526
-0.033270378 0.031253193 -0.0068383403 -0.03893962 -0.016080335 -0.0289009 0.0410228 0.016984357
0.016000805 0.009059245 -0.0028449665 0.021553123 -0.01421273 -0.041437004 -0.004672469 0.0129215885
0.0236549 0.017822495 0.037748523 0.014678334 -0.007521916 0.0037731207 0.011173208 -0.002940221
-0.00274782 -0.003432452 0.019254066 0.027507868 0.0005604548 -0.004335178 0.0036190585 0.035814237
0.024045082 -0.02053848 -0.012515017 -0.0031949955 -0.033313323 0.032630123 -0.035835434 0.025174795
-0.0047793235 -0.052403398 0.008005707 0.0029378545 -0.020500049 -0.03408204 -0.023603808 -0.030629925
0.034854267 0.036819305 0.020035448 -0.028776325 -0.016275663 0.033991937 0.02892212 0.017346885
-0.026283346 -0.03623873 -0.0047323788 -0.02758059 -0.005983217 0.0137936305 -0.023721917 -0.009131231
-0.022000097 0.023755016 0.0036790099 0.04867269 -0.026273482 -0.019301763 0.033309612 0.020806922
0.0011479793 -0.04151962 0.02660367 -0.0025905957 -0.017533172 0.015578673 0.048892498 0.045914907
0.012343282 0.034534737 0.047072645 0.0041551837 0.025352161 0.0025180147 -0.00688483 -0.009820626
0.032707013 0.0014202837 0.024228089 0.033402868 -0.014481805 0.027150724 0.01780616 -0.00598363
-0.027288636 -0.03221222 -0.025905268 0.039966643 -0.00399623 -0.005726295 0.0057391603 -0.02551489
0.030581525 -0.034135398 -0.028883992 0.032022733 0.024178084 -0.02515541 0.0066279774 -0.0008859452
0.023267256 0.021582948 0.030420521 0.03266637 -0.029152209 -0.0387858 -0.032485243 -0.013035464
-0.027157787 0.006390779 -0.02151609 -0.008785191 -0.01354321 -0.03330438 0.005106921 -0.023849763
0.011512989 -0.03534129 0.004652893 0.010307166 0.0021007326 0.025644347 0.010129568 -0.001669232
0.033513937 -0.005951544 0.010693376 0.0025541915 -0.038831696 -0.017205216 0.036686797 -0.0057005407
0.012145295 -0.029314283 0.00026645098 0.02571414 0.030671107 -0.011310135 0.008413709 -0.044949446
0.0060006985 0.010386752 0.013605878 -0.030697169 0.046164628 0.030783778 0.03986266 0.038613304
-0.010446537 -0.03191424 0.0064645964 0.04607335 0.008077162 0.0455938 -0.019678134 0.021133784
0.014050902 -0.041284397 -0.04765768 -0.03123699 -0.009860203 0.028700333 0.0018814673 0.034418214
0.017067978 0.005675698 0.012045089 0.017841851 0.03819223 -0.0057869595 -0.0045641954 -0.014484903
-0.0018711573 0.0108941225 0.024121573 0.037552364 -0.0016659843 0.0041113743 0.020714067 -0.03670799
0.028760914 0.046438385 0.004506589 -0.03963458 0.019757226 0.029408233 0.027073208 -0.024876438
-0.00064080703 -0.0032331685 -0.02199674 -0.008845611 -0.042211406 0.032627545 0.02573908 0.009574027

down1.maxpool_conv.0.double_conv.1.weight f4 [128]
00000000: 09a4 7e3f 0816 803f 9e74 803f 5ee9 823f
00000010: 6404 7f3f 7ba9 803f a9b3 7d3f 8f3b 7e3f
00000020: 0fce 7e3f ce4e 7e3f 1c8b 7f3f 0f55 7d3f
00000030: dc59 803f efd7 7d3f 0818 7f3f a0b4 7f3f
00000040: 75bf 7d3f ec97 803f bb5d 7f3f bb7d 803f
00000050: e3b3 813f b635 823f 4bde 7d3f eb2d 7d3f
00000060: e1b1 7d3f 67e0 803f 2e91 803f 7099 7c3f
00000070: c03b 7a3f 7e55 7f3f 684a 813f 94ee 7c3f
00000080: d59f 803f 4365 813f 762e 803f eb0d 7d3f
00000090: ac73 803f 5369 7f3f 4798 7c3f f7ce 7d3f
000000a0: 60e0 813f 9246 7f3f 76a9 7e3f 1fa7 803f
000000b0: d714 813f 8bf0 7d3f a342 7d3f db62 803f
000000c0: e03c 813f 3d03 7e3f b06c 7e3f 418c 7f3f
000000d0: 4181 7c3f 7822 7f3f 737f 803f 8198 7f3f
000000e0: 4935 7f3f 80d6 7f3f 33da 7e3f dd28 813f
000000f0: 5900 7d3f bebf 7f3f d3fe 7f3f 419a 7b3f
00000100: 3a10 803f 4247 813f c2e8 7b3f 7f5b 813f
00000110: caca 7d3f 3811 803f 649f 833f fd98 803f
00000120: f6fe 813f 6f77 7d3f 8820 813f 40bb 813f
00000130: d463 7d3f ffc3 7d3f 62dc 7c3f e0bb 7e3f
00000140: 2632 7c3f 194b 803f ca5f 803f 47f9 803f
00000150: 139d 7f3f f2f0 7f3f d89b 7e3f 966d 813f
00000160: 7829 7c3f b83a 823f 9696 813f a6c2 7c3f
00000170: a83a 813f 0e7a 7d3f 8c57 813f b829 803f
00000180: 1173 803f c293 7f3f 3478 7e3f d7c4 7d3f
00000190: 2ce9 7d3f 37de 7f3f e27a 7f3f 3dd9 7e3f
000001a0: b394 7d3f 20bd 813f 6d85 803f d728 7f3f
000001b0: 54c6 7d3f 4b22 823f e864 803f 51a8 803f
000001c0: 07f1 803f 8dcd 7f3f 47f2 7d3f 141d 803f
000001d0: 7a5d 7e3f bd22 813f 1b84 7f3f 120d 813f
000001e0: 8378 803f 7ee3 7a3f 98cc 803f 87aa 7f3f
000001f0: 9487 7d3f 3940 7f3f bd9e 7c3f 7a54 7f3f
0.9946905 1.0006723 1.0035589 1.0227468 0.99616075 1.0051721 0.99102265 0.9930963
0.9953317 0.99338996 0.9982164 0.98957914 1.0027423 0.99157614 0.99646044 0.99884987
0.99120265 1.0046363 0.99752396 1.003837 1.0133022 1.0172641 0.9916732 0.9889819
0.99099547 1.0068482 1.0044305 0.9867163 0.9774742 0.99739826 1.0100832 0.9880154
1.0048777 1.0109028 1.0014179 0.9884936 1.00353 0.99770087 0.98669857 0.9914393
1.0146599 0.99717057 0.99477327 1.0051001 1.0084485 0.99195164 0.98929805 1.0030168
1.0096703 0.9922369 0.99384594 0.99823385 0.98634726 0.9966197 1.0038894 0.9984208
0.9969068 0.99936676 0.99551696 1.0090595 0.98828655 0.9990195 0.99998206 0.9828225
1.0004952 1.0099871 0.98402035 1.0106047 0.99137557 1.0005255 1.0283017 1.0046688
1.0155933 0.99010366 1.0088053 1.0135269 0.9898045 0.9912719 0.9877378 0.99505424
0.9851402 1.0022918 1.0029233 1.0076073 0.9984905 0.9997703 0.9945655 1.0111568
0.98500776 1.017417 1.012408 0.9873451 1.0096025 0.99014366 1.0104842 1.0012732
1.0035115 0.99834836 0.99402165 0.9912848 0.9918392 0.9994845 0.9979688 0.9955023
0.9905502 1.0135841 1.0040718 0.9967169 0.9913075 1.0166715 1.0030794 1.0051366
1.0073556 0.9992302 0.9919781 1.0008874 0.99361384 1.0088726 0.9981095 1.0082114
1.0036777 0.98003376 1.0062437 0.9986958 0.99035 0.9970737 0.98679715 0.99738276

down1.maxpool_conv.0.double_conv.1.bias f4 [128]
00000000: 06a9 c5bc 861f abbb 735b 96bc 9da8 18ba
00000010: 73f4 9abc 9d26 69bc b2e6 f1bb f172 25bd
00000020: 8499 b3bc ff9e b7b8 9d14 47bc 98ad b2bc
00000030: 9e23 65bc 4749 abbc 00f4 58bc 50cf 68bb
00000040: 1e26 93bc 2cd6 99bc 3508 50ba dc6f e1bc
00000050: 45c6 f7bc b843 2abc 881c 91ba 057e aebc
00000060: 4541 073a 0160 90bb 2b94 95bc f526 12bd
00000070: 6d39 93bc d272 0fbb f1c7 6abc 6b7e 62bc
00000080: 03e2 e5bc e721 a2bb a6e0 6ebc a598 79bc
00000090: d637 9cba bebe 96bb 7603 a9bc a4b2 04bc
000000a0: e979 19bc 65ab 94bc b8f8 22bd c45a 46bc
000000b0: 454c 25bc 99ab 8abb 57d6 dcbb e92a bcbc
000000c0: fd82 10bc 777b 35bc 0a06 82bb bbc3 1a3b
000000d0: 64d2 c2bc e6be 01bd f6fd 21bd eeb0 e3bb
000000e0: d284 b1bc 11da 06bd ac89 74bb b57d 963c
000000f0: 458a 44bc 429a 8dbc 1a19 03bc eb0d 6bbc
00000100: 4af4 34bc 398e 03bd b238 f2bc e71d a8bc
00000110: f581 10bc 7eea dabc 1705 b8bc cc36 2abc
00000120: 82e5 bdbc 73de 83bc be3d 61bc 8b4d 9e3b
00000130: 7999 a5bc 3c1d dabc 8a39 6fbc 7d04 52bc
00000140: 536b f6bc 4a23 a5bc 5394 2bba ad24 81bc
00000150: 8140 06bc 1bd8 a3bb 7e98 9cbc 10be cbbc
00000160: 0b08 a2bb f1be 16bd 1d9e 97bc c2f0 b5bc
00000170: 0f49 a3bc 9f3e 81bc 4124 41bc 28ef 8eba
00000180: 9a28 06bc 3986 d1bb 50eb 2dbc 5ed4 6fbc
00000190: 4c5a 77bc 815c a1bb f7c6 1dbb 170e c9bc
000001a0: fa4f 1dbc c378 bebc a4b3 b6ba 621f 96bb
000001b0: 4fe6 a1ba 5c83 87bc 0135 0dbd 3992 0cbc
000001c0: 9b45 4b3b 623d 1fbc 7a32 aebc 1fa8 17bc
000001d0: f44f f0bc f44b 12bc 9c95 e4bc 1ffc 37bc
000001e0: 4dd7 ebbb c187 b3bc 2a6f 29bd 5709 84bc
000001f0: f44e 6ebc 8411 8dbc 899a d6bc 6294 93bb
-0.024128448 -0.0052222637 -0.018354153 -0.0005823465 -0.01891539 -0.0142303975 -0.0073822374 -0.04039282
-0.021923788 -8.755735e-05 -0.012150911 -0.021811292 -0.013985543 -0.020908965 -0.013241768 -0.0035523959
-0.017962512 -0.018778883 -0.0007935793 -0.027519159 -0.03024591 -0.010392122 -0.0011071125 -0.021300325
0.0005159567 -0.004405976 -0.018259129 -0.035681684 -0.017971719 -0.0021888507 -0.014329896 -0.013824086
-0.028061872 -0.004947889 -0.014579928 -0.015234147 -0.0011918496 -0.004600375 -0.020631533 -0.008099232
-0.009367445 -0.018148134 -0.039787978 -0.012106601 -0.010088985 -0.004231882 -0.0067394185 -0.02296968
-0.008820293 -0.0110768 -0.003968005 0.00236152 -0.023781963 -0.031676196 -0.039548837 -0.006948582
-0.021669779 -0.032922808 -0.0037313504 0.018370489 -0.011995857 -0.01728547 -0.00800159 -0.01434658
-0.011044571 -0.032118056 -0.02956805 -0.020522071 -0.008820047 -0.026723143 -0.022463365 -0.010389041
-0.023180727 -0.016097283 -0.013747631 0.004831021 -0.020214783 -0.026625268 -0.014601121 -0.012818453
-0.030080473 -0.020158429 -0.00065452344 -0.015764559 -0.00819409 -0.005000127 -0.019115683 -0.024870902
-0.0049448065 -0.03680319 -0.018508011 -0.022209529 -0.019932298 -0.01577693 -0.011788429 -0.0010905014
-0.008188391 -0.0063941744 -0.010615185 -0.014638035 -0.015097212 -0.0049243574 -0.002407489 -0.024542851
-0.009601587 -0.023250943 -0.0013939035 -0.004581378 -0.0012351963 -0.01654213 -0.034474377 -0.008579784
0.003101683 -0.009719225 -0.021264303 -0.009256392 -0.029335 -0.008929241 -0.02790337 -0.011229544
-0.0071972967 -0.021915318 -0.04136578 -0.016117735 -0.014545191 -0.017220266 -0.026196735 -0.0045037726

down1.maxpool_conv.0.double_conv.1.running_mean f4 [128]
00000000: 1961 9f3e 1593 3e3d 9980 e53e 947c 83bd
00000010: f760 03bf bd2d 253f 9922 f2be af18 ab3e
00000020: 4dcb e33d 0ed4 24be 8e8a 7d3e 2b7b 493f
00000030: c518 ef3d 5ab3 063e e35a 5cbe 94a2 03bf
00000040: 9d5b 5e3c 1d52 ebbe 11bf b63e ae52 e4be
00000050: b271 04bf af3b b4be 8956 b3be 2275 0ebe
00000060: f90a a0bd 6679 2d3d e2d6 57be 03ef db3e
00000070: 0bf5 1d3e 8ad6 c1bd 756c a33e 8874 3a3f
00000080: e29f 0fbd 10c4 023f ba4c 833e 57ec ac3e
00000090: 8325 1dbf 121f 9bbd bc8b 90be cc44 ad3e
000000a0: d212 8dbe cb83 293e 0e5a 153f a6c9 a1bd
000000b0: d77f 543d 59e1 333e c00e ac3e 97ff c43c
000000c0: d4fc eabe 6529 a63e 7b23 72bf 9429 49be
000000d0: 94ed 86bd 4187 1fbe 6850 b13e 28d9 d73d
000000e0: 10b1 3f3f f2ee d93d 6532 7c3e 4ff0 7bbf
000000f0: 69bc e4be 4d8b 3ebe 8270 a5be 711c 553d
00000100: b8e1 3ebe b247 ddbe 0353 b23d 911d 4ebf
00000110: 4e02 a13d a391 863e a274 f0be dd9c 29bf
00000120: e01d 02bd 4df4 c03d baee 32be a432 76bf
00000130: 0ad8 093c 0f75 863e 82a1 7fbd 190d f7bc
00000140: 6813 b03e 3603 bd3d 47aa f8be 23bd ab3c
00000150: abb4 303e c48b a43d e2a2 f9be 6c0e e53e
00000160: f02e 13bf 8cc9 2ebf a06b 97be ad01 cbbe
00000170: d60e a5be a6c3 b03d 7eec 99be fc82 cd3c
00000180: 21a3 34bf fc0d b53d 16bc 2cbf fb4e 7e3e
00000190: 8d92 7d3f 1e7e 4abf 823b 2abf a98c e3be
000001a0: 3945 823e d7ae 04bf e46f 613e 3018 cc3d
000001b0: 356a 843d 3a11 cebc 8e35 13bf 33c7 02bf
000001c0: f336 d7be 132e bfbe eb39 eebe f265 783e
000001d0: 17e7 393f b326 04bf 9027 dc3d 7188 f7be
000001e0: 5cc7 a0be 3c92 2b3e e0d1 83bd 25cf 3e3d
000001f0: 79ec 44be b0e9 b6bd c292 2d3c 19d1 aebe
0.31128767 0.046526987 0.44824675 -0.06420246 -0.5131983 0.64522916 -0.4729202 0.3341727
0.11122761 -0.16096517 0.24759886 0.78703564 0.11674646 0.13154355 -0.21519046 -0.5141995
0.013571647 -0.45961085 0.35692647 -0.4459433 -0.51735985 -0.35201785 -0.3502696 -0.1391187
-0.07814593 0.042352103 -0.21078065 0.4295579 0.15425508 -0.09464748 0.31918684 0.7283406
-0.035064586 0.5108042 0.25644475 0.33774063 -0.61385363 -0.075742856 -0.2823161 0.3384155
-0.2755342 0.16554181 0.5834054 -0.078997895 0.05187973 0.17566432 0.33605003 0.024047656
-0.45896018 0.32453457 -0.9458539 -0.19644767 -0.06588283 -0.15578939 0.34631658 0.10539466
0.7487955 0.10641278 0.24628599 -0.98413557 -0.44674996 -0.18607827 -0.323124 0.052029077
-0.18640792 -0.43218762 0.087072395 -0.80513865 0.07861768 0.26282987 -0.46963984 -0.6625498
-0.031766772 0.09421597 -0.1747388 -0.9617102 0.008413324 0.26261184 -0.062409885 -0.030157613
0.34389806 0.09229128 -0.4856741 0.02096421 0.1725642 0.08034471 -0.48757082 0.44737566
-0.57493496 -0.68276286 -0.295743 -0.39649716 -0.3223788 0.08631067 -0.30063242 0.025086872
-0.70561415 0.08840558 -0.67474496 0.24834816 0.99051744 -0.7909869 -0.6649705 -0.44443253
0.25443438 -0.51829284 0.22015339 0.09965551 0.0646557 -0.025154699 -0.5750359 -0.51085204
-0.4203411 -0.3733984 -0.46528563 0.24257639 0.7261824 -0.5162155 0.107497334 -0.48346284
-0.314021 0.16755003 -0.06436515 0.046584267 -0.19230832 -0.08931291 0.010594072 -0.34143904

down1.maxpool_conv.0.double_conv.1.running_var f4 [128]
00000000: 1db8 0c3e a46c f73d 3e88 b33e a4e9 4f3e
00000010: b948 563e b2d2 8f3e b8e8 113f 8e7d 733e
00000020: d6e7 c83d 3b39 f33d de86 5c3e 1e45 423e
00000030: c00b 1b3e f776 1a3e 4115 643e 870e 1c3f
00000040: a866 d33d ca4d 373e 7893 3d3e ea1b 403e
00000050: aaf6 a43e 2869 463e ff8c 813e 5bc6 9d3e
00000060: 06f2 5e3e 9c62 683e c533 ac3d 690e d13d
00000070: 03e1 c33e b203 483e b8d1 233e 7bc0 d03e
00000080: 9429 a13d af28 723e be47 3c3e 682c fe3d
00000090: c1f7 af3e d22c 613e b328 d83d f214 363e
000000a0: b78e 6b3e c355 323e 2a88 563e d938 9e3d
000000b0: 225d 0f3e 5d5c 0d3e 5ed8 d73e 5a28 393e
000000c0: 0129 a13e 312b 333e 0ec3 033f d246 3f3e
000000d0: 0489 ac3e f337 5f3e ed24 ef3d 0be0 d33d
000000e0: 8dc8 6d3e dea2 723d 5fb6 013f 4fa5 fa3e
000000f0: 2762 853e 1f19 d83d c9f0 673e 43d8 083e
00000100: d63c 703e 7f34 6b3e 2070 233e 0717 bc3e
00000110: 12a2 043e f1f0 073e cc59 903e 4cbc 493e
00000120: 88da 383e c1f1 123e cfe3 aa3d 4545 613e
00000130: 847b 4d3e 2cb6 d03d da21 443e fd25 223e
00000140: a1fb 443e 8104 793e c17e c63e e37b 843e
00000150: ae31 9c3d 03c8 823e b0a7 5b3e 50d3 223e
00000160: da94 023f 680a 9c3e 2905 0a3e 3c04 563e
00000170: 10fb ab3e 1347 143e b264 2e3e 64ce 183e
00000180: 612a 363e 3648 f43d 55bc 0f3f 3343 4d3e
00000190: 18b0 cc3e 4b86 003e 1523 813e 5fe2 243e
000001a0: 1155 873e 4ce3 873e 058b 183e 6d4e 833e
000001b0: 6f53 4d3e 0a04 4c3e bd35 b13e 4fdd 363e
000001c0: 3e73 643e 4f97 a13e f954 5a3e e479 4a3e
000001d0: 9dc4 da3e 574e 393e 70fc 203e 2fab 9b3e
000001e0: 3f47 393e e78a 043e 5f14 aa3d 890f d33d
000001f0: 4c20 313e c72d b13d 0fdd 273e 8034 e13d
0.13742109 0.120812684 0.35064882 0.2030397 0.20926179 0.28090435 0.56995726 0.23778364
0.09809844 0.1187615 0.21535823 0.18971679 0.15141201 0.15084444 0.22273733 0.60959667
0.103223145 0.17900768 0.18513286 0.18760648 0.3221944 0.19376051 0.25302884 0.30815396
0.21772012 0.22693866 0.08408312 0.10207827 0.38257608 0.1953266 0.1599797 0.4077185
0.078692585 0.23648332 0.18386742 0.124108136 0.3436871 0.21989754 0.10554638 0.17781428
0.2300366 0.17415528 0.2095038 0.077256866 0.14000371 0.13804765 0.42157263 0.18081799
0.31476596 0.17496945 0.51469505 0.1867936 0.33698285 0.21798687 0.11676965 0.10345467
0.23221035 0.059237354 0.506689 0.48954245 0.26051447 0.105516665 0.22650446 0.13363747
0.23460707 0.22969244 0.15960741 0.36736318 0.1295245 0.13275506 0.2819351 0.19700736
0.18052113 0.14350034 0.08344232 0.2199908 0.20066649 0.101909965 0.19153538 0.15834804
0.19236614 0.24318124 0.3876858 0.25875768 0.07626663 0.25543222 0.21450686 0.15900922
0.5100838 0.3047669 0.13478531 0.20900053 0.33589983 0.14480238 0.170306 0.14922482
0.17789604 0.11927836 0.56146747 0.20045166 0.399781 0.12551229 0.25222078 0.16101979
0.26432088 0.265406 0.14896782 0.25645772 0.20051359 0.19923416 0.34611312 0.1785786
0.22309586 0.31560752 0.21321477 0.1977306 0.4272813 0.1809629 0.15721297 0.3040404
0.18093584 0.12943612 0.08304667 0.103056975 0.17297477 0.086513095 0.16392921 0.10996342

down4.double_conv.0.weight f4 [64, 128, 3, 3]
00000000: 6231 8fbc 1cb0 1b3d 3a7c 9bbb edf3 243c
00000010: 0a81 793b c246 0c3c 92b0 ec3a d694 573c
00000020: b417 163c 0ff2 aabc 9fbb 0dba 96dc aabc
00000030: 708f 033c 0874 bcbc f233 383c 18d8 bf3b
00000040: 6eb8 573c a5a4 6e3c 191c b338 9e64 a73c
00000050: 3757 c8ba ad63 58bb 9208 6bbc d079 113c
00000060: 0fe7 4f3c c050 693c 970e b83b 1246 04bb
00000070: 174e 6abc 8d7b 2ebc 34f8 2cbc c13d 733a
00000080: f50a 87bc 5a93 90bb 514f b5bc dd0d 14bd
00000090: 68f4 f1b9 93a5 a2bb e339 ff3b 6959 823b
000000a0: 6c3e fabc 3308 1a3c 3fe8 68bc 5176 aa3c
000000b0: 52f9 bd3c e289 8bbc b302 bfbc 238c bb3c
000000c0: a256 d9bc 963e b3bc 812b 3d3c bf86 18bd
000000d0: 9ff2 57bc 301b b0bc e1a6 89bb dc64 89bc
000000e0: 0816 d13c 895b 813c 2c92 3b3c b4fd 64ba
000000f0: 2161 82bc bbfe 16bc 7d1f ae3a 72ea e73c
00000100: 9769 eb3b a30e 5ebc adec 8bbc fcd6 59bc
00000110: 9a80 c73c 68a3 23bd 2aac 1b3c ac16 9cbc
00000120: 0a97 93bb 95cd e3b8 7c90 a43c 8067 4e3c
00000130: 918e 9039 4e21 0cbd 385e c93c eff2 08ba
00000140: ff4e 2ebc caf1 ddbc 71e6 d9bc 35f6 9e3c
00000150: 1c99 f6bb cb0f cabc cf24 5a3c cf0e 053d
00000160: 02d3 98bb 95c9 9c3c 7262 b3ba a154 363b
00000170: 710f 8fbc 6b35 573c f534 76bc 4733 67bc
00000180: 71eb 7dbc 44b9 363c 45b9 ef3c 564c be3c
00000190: ecdd 12bd eced f9bc 44f6 d83b 8f61 0fbc
000001a0: ba3c e1bc 9319 11bb 2a97 bebc fbdb c6bc
000001b0: 1a21 d03b 274d f7bb 4963 deb9 7523 c33c
000001c0: 229f deba feec fc3c 9c82 da3c ff68 75bc
000001d0: 45b1 b13c 622c f03c 4f3d ee3c ab21 d53c
000001e0: 9b5e d13c d2aa ef3b 378b afbc 3529 a9bc
000001f0: db29 823c 75a7 d2bc 7370 ed3b 3f0c 9abb
00000200: 4c40 813c 8ed7 0f3c 2c96 833c d2bc 33bc
00000210: 5a6a 7abc b163 fd3b fe4f 6abc 04dc 153c
00000220: faf4 a13c 1007 35bb 2918 1ebb 4f11 383a
00000230: 9668 983c a9a7 1e3b 245f a9ba 53e3 1abc
00000240: b9dd d23b ec66 b8bc a55a 1a3d d242 5bbb
00000250: 62c5 deba 64e0 0eb9 8146 f63c 5d31 05bc
00000260: 814a 823c f32a 2c3c 73b5 59bc e4ff 2f3b
00000270: 36e9 8cbc 7886 543b 403e 913c d53b 30bc
00000280: d958 a2bc cf8f cdbc af32 93bc 8bed 88bc
00000290: 8f05 8f3a badb 7a3a 7497 463b 8736 e83b
000002a0: a590 103c ddee 0dbb b9e2 01bc c763 c43a
000002b0: a999 8cbb c7c3 06bc 502d 26bc 6e03 b53b
000002c0: 05a0 32bb d70f 9abb 5152 903c eacf 61bd
000002d0: 79c6 eabc 423d 913b 2096 68bc fa4e 4c3c
000002e0: 958a fe3c 7a90 8ebc e55c 1bbc ba22 debc
000002f0: d57e 37bd f2d3 fbbc b326 fcbc 6ece 1abc
00000300: 13fb f03b 703c fdba 7b82 90b9 5638 363c
00000310: 2521 d13b 5cfe f63c 150e 243c fcf9 a8bc
00000320: ff3b 68bc 81f3 ad3c 40d8 9ebb 3390 cdbc
00000330: 7d4e 383c c019 5eba 52fe b8bc 189e 9e3b
00000340: 7f8b cc3c 50fd edba 96a4 073c 5014 103b
00000350: b94c b0bb 3296 60bc 87a3 a53b 66c7 a1bc
00000360: 8695 5e3c c36c 50bb 2d3d ff3b ad08 053d
00000370: db7a b9bc 7658 a93c 168a 693c 02af b83a
00000380: a95f b8bc 674c b4bc a784 8cbc d47e 1cbd
00000390: f0e7 ebbb a6be 5f3b 9261 dfbc cc66 073c
000003a0: 35da e7ba 16a5 bf39 146f 263c 1f02 8ebc
000003b0: 9b8f a33a f044 ad3c 2032 663c a8d4 a63c
000003c0: b3f9 0abb 3f48 63bc 4e37 44bb 0b01 183c
000003d0: 305a 53bc 41e9 cd3a 5d4c 883c a8c9 d9bc
000003e0: f82a 5c3c 6881 47bc 1697 793c ffc0 8dbc
000003f0: 39ca 0abd 833f f13c 0f91 953b 344e c4bb
-0.017479602 0.038009748 -0.0047450336 0.010067922 0.0038071298 0.008561792 0.0018057993 0.013158044
0.009160925 -0.020867376 -0.0005406681 -0.020857137 0.008029804 -0.023004547 0.0112428535 0.005854618
0.01316653 0.0145656215 8.540619e-05 0.02043372 -0.0015284781 -0.0033018396 -0.014345305 0.00887914
0.012689366 0.014240444 0.0056169736 -0.0020183367 -0.014300845 -0.010649574 -0.010557223 0.00092789164
-0.016484717 -0.004412097 -0.022132548 -0.036146034 -0.000461492 -0.0049635856 0.007788883 0.0039779437
-0.030547343 0.009401369 -0.014215528 0.02080837 0.023190174 -0.017033521 -0.023316717 0.02289397
-0.026530568 -0.02188043 0.011546017 -0.03723788 -0.013180404 -0.021497339 -0.0042008017 -0.016771726
0.0255232 0.015790718 0.011448424 -0.00087353145 -0.015915455 -0.009216006 0.0013284531 0.028310034
0.007184218 -0.013553294 -0.01708063 -0.013295885 0.024353314 -0.03995076 0.009501496 -0.01905378
-0.0045040892 -0.00010862496 0.020088427 0.0125979185 0.0002757204 -0.03421145 0.02458106 -0.0005224188
-0.010638951 -0.027092833 -0.02659914 0.01940451 -0.0075255763 -0.024665734 0.01331444 0.032484826
-0.004663826 0.01913909 -0.0013685955 0.002782144 -0.017463418 0.013135294 -0.015027274 -0.014111347
-0.015498028 0.011152569 0.029263148 0.02322976 -0.035856172 -0.030508958 0.006621154 -0.008751287
-0.027494777 -0.0022140488 -0.02326544 -0.024274817 0.0063516023 -0.007547039 -0.00042417113 0.023820618
-0.0016984681 0.030874725 0.026673608 -0.014978646 0.021690974 0.029318038 0.029081969 0.02601703
0.025557807 0.0073140645 -0.021428687 -0.020649532 0.015889099 -0.025714615 0.007246071 -0.004701167
0.01577773 0.00877942 0.016062818 -0.010970311 -0.015284145 0.0077328314 -0.014301298 0.009146694
0.019770134 -0.0027622618 -0.0024123287 0.0007021622 0.018604558 0.002420882 -0.0012922031 -0.009453612
0.006435123 -0.022510014 0.0376841 -0.0033456576 -0.001699608 -0.00013625767 0.030062916 -0.008129445
0.015904667 0.010508287 -0.01328789 0.0026855404 -0.017201047 0.0032428782 0.017729878 -0.010756453
-0.019817756 -0.025092987 -0.017968504 -0.016714832 0.0010911691 0.0009569485 0.0030302675 0.0070865783
0.008823548 -0.0021657266 -0.00792759 0.0014983349 -0.0042907787 -0.008225388 -0.010142639 0.0055240905
-0.0027256024 -0.0047015953 0.017617377 -0.055129923 -0.028659092 0.0044323513 -0.014195949 0.012470001
0.03107194 -0.017402876 -0.009482597 -0.027116168 -0.04479869 -0.030740712 -0.030780172 -0.009448631
0.007354149 -0.001932038 -0.00027563036 0.01112183 0.006382125 0.030150585 0.010013123 -0.020627014
-0.01417446 0.021234276 -0.0048475564 -0.025093174 0.011249182 -0.0008472465 -0.022582207 0.0048406236
0.02496886 -0.0018157158 0.008278986 0.0021984763 -0.00538024 -0.013707684 0.0050548944 -0.0197484
0.013585454 -0.0031803108 0.007789275 0.032478977 -0.02264159 0.020672064 0.014254114 0.0014090242
-0.022506552 -0.022009088 -0.017153097 -0.03820689 -0.00719928 0.0034140735 -0.027268205 0.008264255
-0.0017688932 0.00036553357 0.010158319 -0.017334996 0.0012478711 0.021151036 0.014050037 0.020365074
-0.0021205961 -0.013872205 -0.002994019 0.009277592 -0.01289992 0.0015709774 0.016637975 -0.026585415
0.013437979 -0.012176849 0.015233776 -0.017303942 -0.03388426 0.02944923 0.0045644115 -0.005990768

down4.double_conv.1.weight f4 [64]
00000000: 4205 873f 1e67 873f e1e5 873f 0105 943f
00000010: e711 863f 315f 963f 7548 943f b84d 923f
00000020: fe59 863f 7ff1 843f 4692 863f dd86 933f
00000030: d727 873f 1da8 873f 0224 873f 61ce 963f
00000040: aa91 943f 4388 873f 6a65 933f 4e26 983f
00000050: 90b2 973f fa25 873f 1ed4 873f 0117 953f
00000060: 2405 943f 5d97 923f 85eb 953f 6747 873f
00000070: 1b4e 943f 255c 853f ed0f 873f 51f4 953f
00000080: 8e1c 943f 32a1 943f ccaa 853f 24ea 973f
00000090: 4385 873f 5337 853f f45e 933f 5de2 883f
000000a0: 7552 953f 83fe 853f 3864 993f 5fd9 953f
000000b0: b447 863f b284 963f 7ebf 973f 9c18 953f
000000c0: 3750 973f 4b0b 893f 00e6 973f c8f2 933f
000000d0: c5b0 963f 3185 863f fda5 863f 97a9 943f
000000e0: 2104 853f 5846 933f 4ecf 863f 44f3 853f
000000f0: 3cf1 903f 4101 943f d3cd 933f 2fdf 963f
1.054848 1.0578344 1.0617028 1.1564027 1.0474213 1.17478 1.1584612 1.1429968
1.0496213 1.0386199 1.0513389 1.1525532 1.0559033 1.0598179 1.0557864 1.1781732
1.1606953 1.0588459 1.1515324 1.188669 1.1851368 1.0558465 1.0611608 1.1647645
1.1564069 1.1452442 1.17125 1.0568665 1.1586336 1.0418745 1.0551735 1.1715184
1.1571214 1.1611693 1.0442748 1.1868329 1.0587543 1.0407509 1.1513352 1.069408
1.1665789 1.0468296 1.1983709 1.1706961 1.0490632 1.1759245 1.1855314 1.1648135
1.1821355 1.0706571 1.1867065 1.1558466 1.1772696 1.0509397 1.0519406 1.1614255
1.0391885 1.1505842 1.0532014 1.0464864 1.1323619 1.1562883 1.1547188 1.178686

down4.double_conv.1.bias f4 [64]
00000000: db5d 1cba fc53 babb bb41 79bc 3fb0 ae3d
00000010: 5519 963a db47 e43d 4f7d bb3d a53f b63d
00000020: 7562 f9bb f4a2 803b d263 383b c9c3 c73d
00000030: 001b 44bc 6b4e e3bb b4db 1ebc 5019 cd3d
00000040: 2d53 d63d 8f7a 87bc 516f d23d ce83 d63d
00000050: 2fc2 d03d 557c a0ba 2fed aaba cf9e d93d
00000060: 3886 c23d 1ea8 c73d 08c7 dd3d 23b1 eebb
00000070: d377 d63d 03d8 993b 7f6b 1bbb 22a8 cd3d
00000080: 0496 c33d a315 c23d 2d43 a13b 586f e73d
00000090: d6c5 3dbc 5294 e63a 0dd8 b63d ea8b ebbb
000000a0: 36ee ce3d bcba 3dbb d8dc e03d 11b0 c23d
000000b0: 14a9 193a 78b9 d03d 5b60 d93d ca0f dd3d
000000c0: c076 f13d 36b9 35bc a35c d73d 8d8e c43d
000000d0: 4fd4 d63d d2cb 38ba 5d84 24bc dbba c63d
000000e0: 6f2d 84bb 6b71 ac3d 27ab 2fba 5a4c abbb
000000f0: 62a6 b03d 431c c43d aef7 b23d b865 d23d
-0.0005964913 -0.0056862812 -0.015213425 0.0852971 0.0011451641 0.11146518 0.0915476 0.08898858
-0.007610614 0.0039256755 0.002813567 0.0975414 -0.011969328 -0.0069368384 -0.009695936 0.100145936
0.10465083 -0.016537933 0.10275138 0.104743585 0.101932876 -0.0012244085 -0.0013040657 0.106259935
0.094982564 0.09748863 0.10828978 -0.0072843 0.104720734 0.00469494 -0.0023715196 0.100418344
0.095500976 0.09476783 0.004921338 0.11300534 -0.011582812 0.001759181 0.08927927 -0.00718831
0.10104029 -0.0028950414 0.109796226 0.09506238 0.00058616814 0.10191625 0.106140815 0.10794027
0.11790228 -0.011091521 0.10515716 0.09597502 0.104897134 -0.00070494146 -0.0100413235 0.097036086
-0.0040337364 0.0842007 -0.0006701224 -0.0052276077 0.08625485 0.09575703 0.087386474 0.102733076

down4.double_conv.1.running_mean f4 [64]
00000000: 8063 49be 0810 16bf b5be 67bf 031e 533d
00000010: ad0f aabe 8cf5 bc3e 42c5 3f3d 7ded a9be
00000020: ca60 34bf 099e a7bd 2450 3c3e ea72 7e3e
00000030: a078 12bf c7fe 37bf 7f95 f4be ca16 e83e
00000040: 1a0f 563e bef1 05bf 0a65 063e 3bc3 f23e
00000050: 8a54 9fbe e89a 10bf d95a 04bf cfe2 863e
00000060: 6458 21bd a6a7 aabe 6b8b 073e dd08 41bf
00000070: 0a15 c33e 805f 493d 5c10 f4be db51 ec3e
00000080: 04a2 dcbe 24b9 54bc 539e 933c c449 bd3e
00000090: 43d5 44bf 1c10 273e b93b ccbd c70e b7be
000000a0: c0d1 aebe f1f0 cf3d 36de 01bd f2f4 d23d
000000b0: f5dd 02bf f36f 12bd 6726 8e3e defe 32be
000000c0: 709e 083f 1ae3 b9be bbce 483e f3cc a8be
000000d0: d8a2 2c3e a2d5 133f ed3e a3be f7be a63e
000000e0: aa57 ecbc e804 95bd 2a37 f3be 4996 4d3d
000000f0: e89c 72be 703c a0be 2d33 303e a4f0 42bd
-0.19666862 -0.5861821 -0.9052537 0.051542293 -0.33215085 0.36906087 0.04681898 -0.33189002
-0.7046019 -0.0818444 0.18389946 0.24848524 -0.5721531 -0.71873134 -0.47770306 0.45329887
0.20904198 -0.52321994 0.13124481 0.47414574 -0.31119186 -0.5648637 -0.5170112 0.26344916
-0.039390936 -0.3333103 0.13236777 -0.7540415 0.3810199 0.04916334 -0.4766873 0.461562
-0.43092358 -0.012983594 0.01801983 0.3697034 -0.7688791 0.16314739 -0.09972329 -0.35753462
-0.34144402 0.10153378 -0.031706057 0.10300626 -0.5111993 -0.035751294 0.27763674 -0.17480037
0.53366756 -0.36306077 0.19610111 -0.32968864 0.16858995 0.5774785 -0.31883946 0.3256757
-0.028850395 -0.072763264 -0.47503024 0.05019215 -0.23692667 -0.3129611 0.17207022 -0.047592774

down4.double_conv.1.running_var f4 [64]
00000000: 8604 e13d 2489 d83d 0c03 e93d dcd0 da3d
00000010: 817e ed3d 4332 303e d7ad 6b3e bf1f 1b3e
00000020: 7769 243e 6156 433e d73d 3d3e 1206 813e
00000030: 0457 063e 001f fc3d a263 bf3d 419b 763e
00000040: 9eef 253e 32d7 963d 200f 4a3e 2682 573e
00000050: 6c85 1f3e 131e 223e 8bad 1c3e 0017 773e
00000060: b524 5a3e 008b c53d 1803 013e b97a 053e
00000070: f6a9 573e db6e 383e 42d3 ec3d ce0e 333e
00000080: 3a70 753e f775 413e 7c56 2e3e a352 993e
00000090: ae47 d73d 620a 373e 211f 343e e474 c23d
000000a0: 8437 453e 7186 ec3d 3b7f 463e 769d 423e
000000b0: ae50 2a3e a201 8f3e 3c55 a43e 57dc a13d
000000c0: d052 193e 08a7 d83d 0be8 a43e b8b7 1b3e
000000d0: a595 4d3e d81f d83d 18e2 d13d 78bf c83d
000000e0: 959b ff3d 1d59 a63d 7f3a 063e 839d e83d
000000f0: 33af 323e ece9 533e 1f1f 783e 0b23 753e
0.10987191 0.105730325 0.11377534 0.10684368 0.11596394 0.17206673 0.23015533 0.15148829
0.16055857 0.1907592 0.18480621 0.25199944 0.13119131 0.123106 0.09345175 0.24082662
0.16204688 0.07365264 0.19732332 0.21045741 0.1557824 0.15831785 0.15300576 0.24129868
0.21303065 0.09645653 0.12598836 0.13035096 0.21060929 0.18011038 0.11563732 0.17486116
0.23968592 0.18892656 0.17025179 0.2994586 0.10511719 0.17875054 0.1759 0.09494951
0.19259459 0.1154908 0.19384472 0.19005379 0.1663234 0.27930933 0.3209628 0.079033546
0.14972997 0.10578734 0.32208285 0.15206802 0.20076616 0.10552949 0.10248202 0.09802145
0.12480847 0.08122466 0.13108252 0.11358168 0.17449646 0.20694703 0.24230622 0.23939149

outc.conv.weight f4 [2, 64, 1, 1]
00000000: ace8 51bd adb6 e7bd d842 83bd b47b 253d
00000010: 2ea6 0e3d 45f4 5a3e d0d9 893e 96c5 623e
00000020: 0d5d cfbd debd 1bbd 29d9 debd 9634 5f3e
00000030: 6592 aabd e02f d9bd 7eca aabc 8889 4d3e
00000040: 08d9 063e 4597 e8bd 49e7 7a3e 4b10 853e
00000050: 6fed 903e 1bc9 00be e628 36be aa20 813e
00000060: 7588 463e ca89 263e d31f 543e 0dda 1bbe
00000070: 3d50 863e 51f2 ffbd 2795 dabc b22e 563d
00000080: 8be9 1f3e d7fd 083e 76ff 69bd 0f27 5d3d
00000090: 52a3 29be ddcf 08be b90f 613e e8fa 29be
000000a0: 1f3f 103d 42b8 15bc c63d 7a3e d1c3 233e
000000b0: 558f b8bd 8eee 223e d2f5 583e 39c3 7a3e
000000c0: e327 093e 3724 c1bd b903 453e 76b4 133e
000000d0: e46c 353e a975 23be 54cc 32be 404c 7b3e
000000e0: ce8f 0cbe 42af f63d e6d0 f5bc 062b d9bd
000000f0: 9a7c 743e 5aae 323e 3793 453e c508 653e
00000100: 951a fd3d bb00 fe3d 39ea 0c3e 8530 6dbe
00000110: 7a83 0b3e 7a2e 85be 485a 46be 2703 5cbe
00000120: 58c0 3f3d 8366 af3d e2ef 123e 4a21 99bd
00000130: 612e ab3d ae6c 2b3e 587f 233e 5f5f 84be
00000140: 9c79 84be 6343 093e 8863 5cbe bab9 94be
00000150: 17dd 49be c0d7 ea3b 2ea7 db3d 2d3b 18be
00000160: 7008 2abe 8927 e8bd 2d1e 32be e4f6 303e
00000170: ed7f 9cbd a9df ab3d f28e 1a3e d5c6 7bbe
00000180: 1f0c 1bbe 1057 51be f78a 1e3e 35a8 80be
00000190: 25eb b3bc 5904 2f3c 4c92 64be f231 373e
000001a0: ce3c 83be ef55 0f3e 6ee0 dabd edf9 14be
000001b0: 93b8 aa3c ac6e 5dbe 384c 6dbe 4097 41be
000001c0: d695 86be 41a6 283e 739c 4ebe e587 2cbe
000001d0: 2e22 93be ed03 a43d 915a ecbc 89b1 32be
000001e0: e7e4 2d3c fb15 0fbe 4d59 033e e6d1 b83d
000001f0: bd70 2abe 1689 2cbe a774 6ebe 2440 06be
-0.051247284 -0.113141395 -0.06409234 0.040401176 0.03482645 0.21382244 0.2692399 0.22145686
-0.1012517 -0.03802287 -0.10881264 0.21797404 -0.08328704 -0.106048346 -0.020848509 0.20071995
0.13168728 -0.113569774 0.24502291 0.25988993 0.28306147 -0.12576716 -0.17789039 0.25220233
0.19387992 0.162635 0.20715265 -0.15219899 0.26233092 -0.1249739 -0.02668245 0.052290626
0.15616433 0.13378082 -0.057128392 0.053992327 -0.16566208 -0.13360544 0.21978654 -0.1659962
0.035216447 -0.009138169 0.24437627 0.15992667 -0.090117134 0.15911314 0.21187523 0.24488534
0.13394122 -0.094307356 0.19239701 0.14424309 0.1771732 -0.15962853 -0.17460757 0.24540806
-0.13726732 0.120451465 -0.030006837 -0.10603909 0.23875657 0.17449322 0.1929444 0.22366627
0.12358586 0.12402483 0.13761224 -0.2316304 0.13624373 -0.2601202 -0.19370377 -0.21485578
0.046814293 0.085644744 0.1434932 -0.074770525 0.083584554 0.16740677 0.15966547 -0.25854012
-0.2587403 0.13404612 -0.21522343 -0.29047948 -0.19713245 0.0071668327 0.10725246 -0.14866324
-0.16604781 -0.11335666 -0.17394324 0.17281681 -0.076415874 0.08392269 0.15093592 -0.24587567
-0.15141343 -0.20443368 0.15482698 -0.25128332 -0.021962712 0.010682189 -0.22321433 0.17890146
-0.25632328 0.13997625 -0.10687338 -0.14548464 0.020839965 -0.21624249 -0.23173606 -0.18905354
-0.2628619 0.16469671 -0.20176868 -0.16848715 -0.28737015 0.08008561 -0.02885178 -0.17450537
0.010613657 -0.13973229 0.12827034 0.0902441 -0.16644569 -0.16849169 -0.23286687 -0.13110405

outc.conv.bias f4 [2]
00000000: 0191 003e ca3a e1bd
0.12555315 -0.10997541
