net/pytorch/unet_simp_samll.pth (torch, 607657 bytes, 17 tensors)

inc.double_conv.0.weight f4 [64, 3, 3, 3]
0.19398624 0.081010886 0.031814337 0.07208672 -0.061394997 0.08808647 -0.046666693 -0.121184394
-0.034869477 -0.10531299 0.15772583 0.14710422 -0.16909131 -0.17880273 0.0485766 -0.13326585
-0.15056065 0.060016748 0.20180148 0.026614647 0.147961 -0.094557494 0.092608534 0.08128676
0.10781099 -0.12361198 -0.033337556 -0.050970316 -0.042190954 0.09533355 -0.022373654 0.07882468
0.16942343 0.15376568 -0.1010363 0.17099744 -0.0040266747 0.07963206 -0.07293457 -0.18306121
0.04387008 -0.1252784 -0.069006175 0.11363396 -0.058280725 -0.004266088 0.07453421 0.0816823
-0.039675772 -0.05959679 -0.15128636 0.05800312 -0.038636196 -0.09635082 0.1025157 0.17358221
0.13724542 0.03463285 -0.15409048 -0.10061747 0.098160826 -0.16852851 0.07684343 0.03804632
0.11379879 0.17903678 -0.047969565 -0.172221 -0.09497318 0.07824115 -0.15408993 -0.1352417
0.007125354 0.04007699 -0.16237348 -0.1746347 0.12067628 -0.101365104 -0.019370288 0.19054857
-0.012326226 -0.044268016 -0.0693337 -0.15039168 -0.11169474 -0.18827912 -0.062024254 0.07882689
0.124125704 0.021677978 0.0840063 0.02268457 -0.12251484 -0.082407236 0.049530372 -0.0063566705
-0.13406505 0.1046235 -0.04452096 -0.14811721 0.14112152 -0.0060047577 -0.14063522 -0.11688833
-0.092311144 -0.034406528 0.03195404 0.028572693 -0.08913426 -0.02349006 0.039765812 0.1157179
-0.08694835 0.036148738 0.14432466 0.15697499 0.07187058 -0.18289901 -0.021449737 -0.054578096
0.081291914 0.13268454 -0.05677511 0.10530839 0.17510106 -0.014853327 0.10035784 -0.18545245
0.07204155 -0.068296745 -0.036292143 -0.10022474 0.028897623 -0.03840227 0.005864117 0.028135799
-0.065959655 -0.13422474 0.04696628 0.0057796394 0.09335515 -0.03791982 -0.04921955 0.15333146
-0.10246906 0.08700896 0.14438678 0.011929492 0.09594387 0.16026956 0.042087518 -0.00198934
0.044594996 -0.15754506 -0.15077452 -0.018154716 -0.19733413 0.05892907 0.15265086 0.045603547
0.05826365 -0.068408296 -0.10648132 -0.119822845 0.064969376 -0.07543606 0.026583098 0.039071206
-0.03451931 -0.1680888 0.18295111 0.17771985 -0.15378568 -0.20779747 -0.13966157 -0.17403148
0.06355634 0.060810026 -0.044265714 -0.00724663 -0.07926294 -0.16633941 -0.042181995 0.16814639
0.034705523 -0.00033845598 -0.19843489 -0.13073473 0.1321232 0.17868187 -0.03749553 -0.044816677
-0.19853114 0.072037764 -0.07897376 0.11597798 0.16528301 -0.1376229 0.13072085 0.12574796
-0.02647895 -0.1044965 0.14161572 -0.103487596 0.11941256 0.084365524 -0.06127846 0.17203829
-0.019683601 0.0542759 -0.08273834 0.11754185 0.15512069 -0.04418711 0.009358326 -0.023042096
-0.13419195 -0.16778621 -0.122130334 -0.1675123 -0.1301712 -0.068365164 -0.06164851 0.0441407
0.07671794 0.16548218 -0.07482284 0.12611529 0.13578412 0.1332677 0.09035419 -0.18773542
-0.13118383 -0.083145 -0.030469496 0.1493861 0.003348062 -0.08093468 0.18072768 0.13420157
-0.13420925 -0.018718895 0.10618698 -0.15377074 -0.016023349 -0.13001518 0.115022354 0.06368592
0.17010333 -0.080409765 0.024724651 -0.071781285 -0.06325991 -0.13318335 0.18997759 0.16270082
00000000: 54a4 463e 09e9 a53d c04f 023d 34a2 933d
00000010: 5279 7bbd ae66 b43d 9325 3fbd 862f f8bd
00000020: 4cd3 0ebd 56ae d7bd e182 213e 7da2 163e
00000030: 4626 2dbe 1018 37be 42f8 463d d876 08be
00000040: 922c 1abe 1fd4 753d 0ca5 4e3e f606 da3c
00000050: 1783 173e 5ca7 c1bd 8ba9 bd3d ac79 a63d
00000060: 02cc dc3d 4728 fdbd f68c 08bd 40c6 50bd
00000070: 6cd0 2cbd 3c3e c33d f448 b7bc d56e a13d
00000080: 567d 2d3e c074 1d3e 1fec cebd f419 2f3e
00000090: 32f2 83bb 2216 a33d b85e 95bd 6674 3bbe
000000a0: 1db1 333d fb48 00be 1c53 8dbd ecb8 e83d
000000b0: c5b7 6ebd 8aca 8bbb 64a5 983d 0d49 a73d
000000c0: 1083 22bd c31b 74bd d0ea 1abe ae94 6d3d
000000d0: fd40 1ebd 9453 c5bd c0f3 d13d 89bf 313e
000000e0: 108a 0c3e 2ddb 0d3d e5c9 1dbe 8810 cebd
000000f0: 8b08 c93d bd92 2cbe 1760 9d3d 75d6 1b3d
00000100: 570f e93d 6b55 373e bc7b 44bd b45a 30be
00000110: 4c81 c2bd e53c a03d c0c9 1dbe cd7c 0abe
00000120: cd7b e93b c527 243d 3c45 26be 70d3 32be
00000130: 2025 f73d 8298 cfbd 70ae 9ebc 2a1f 433e
00000140: f0f3 49bc 6152 35bd d4fe 8dbd 4700 1abe
00000150: 36c0 e4bd 3ecc 40be 250d 7ebd fe6f a13d
00000160: 9e35 fe3d 0496 b13c 7f0b ac3d fed4 b93c
00000170: 0fe9 fabd 20c5 a8bd 5ce0 4a3d 9e4b d0bb
00000180: 5948 09be d844 d63d 9c5b 36bd 0aac 17be
00000190: 2982 103e 8fc3 c4bb ae02 10be 2663 efbd
000001a0: a00d bdbd dced 0cbd 3de2 023d 4811 ea3c
000001b0: 068c b6bd 3a6e c0bc 7ae1 223d 82fd ec3d
000001c0: fa11 b2bd b310 143d d8c9 133e 0dbe 203e
000001d0: e230 933d e149 3bbe 5cb7 afbc 488d 5fbd
000001e0: 607c a63d 75de 073e 058d 68bd edab d73d
000001f0: b14d 333e 5e5b 73bc 6988 cd3d 3fe7 3dbe
00000200: 858a 933d 2adf 8bbd 12a7 14bd a142 cdbd
00000210: b5ba ec3c b34b 1dbd c727 c03b 0c7d e63c
00000220: db15 87bd 3672 09be b75f 403d 2163 bd3b
00000230: fc30 bf3d d051 1bbd 709a 49bd ec02 1d3e
00000240: 4cdb d1bd c131 b23d 21da 133e ea73 433c
00000250: 387e c43d b41d 243e f663 2c3d 965f 02bb
00000260: 3ea9 363d 7e53 21be a364 1abe 33b9 94bc
00000270: f511 4abe 9c5f 713d 8250 1c3e c9ca 3a3d
00000280: dda5 6e3d a619 8cbd e112 dabd ae65 f5bd
00000290: aa0e 853d 397e 9abd ccc4 d93c 2109 203d
000002a0: 1f64 0dbd 781f 2cbe 8957 3b3e 31fc 353e
000002b0: fe79 1dbe dcc8 54be 7103 0fbe 4f35 32be
000002c0: d429 823d ef13 793d f74f 35bd 2375 edbb
000002d0: 9c54 a2bd e154 2abe 07c7 2cbd 912e 2c3e
000002e0: 6127 0e3d cb72 b1b9 8432 4bbe 53df 05be
000002f0: 4e4b 073e 61f8 363e ea94 19bd b191 37bd
00000300: bf4b 4bbe 8988 933d ffbc a1bd dd85 ed3d
00000310: f33f 293e 04ed 0cbe b0db 053e 13c4 003e
00000320: 62ea d8bc 4302 d6bd b603 113e 4ef1 d3bd
00000330: 928e f43d d5c7 ac3d 1fff 7abd ce2a 303e
00000340: 813f a1bc 6850 5e3d b872 a9bd c8b9 f03d
00000350: f5d7 1e3e 8bfd 34bd aa53 193c c7c2 bcbc
00000360: 9d69 09be 26d0 2bbe 781f fabd 5888 2bbe
00000370: 994b 05be 0903 8cbd 2683 7cbd e1cc 343d
00000380: 4c1e 9d3d 2974 293e b83c 99bd 5e24 013e
00000390: fe0a 0b3e 5477 083e 9e0b b93d b73d 40be
000003a0: 0e55 06be ed47 aabd 2a9b f9bc abf8 183e
000003b0: 296b 5b3b 15c1 a5bd ad10 393e 236c 093e
000003c0: 266e 09be 5e58 99bc 8f78 d93d 1476 1dbe
000003d0: 6643 83bc b322 05be d790 eb3d c36d 823d
000003e0: 912f 2e3e e0ad a4bd 5a8b ca3c 1102 93bd
000003f0: 698e 81bd 3761 08be 7c89 423e 0b9b 263e

inc.double_conv.1.weight f4 [64]
0.9941257 0.9930274 1.0193597 0.96595776 1.0132563 1.0111288 0.9821738 0.9792716
0.9973176 0.9871258 0.99387914 0.99940634 0.9974229 0.95945144 0.9846389 0.99558
1.0017608 1.0136262 1.0140893 0.9911262 0.99491745 0.99261194 0.9657071 0.99790174
1.0690992 1.0078769 0.9841736 1.0059135 0.9766492 0.9918567 0.9953573 0.9964868
1.0030087 1.018726 1.0020022 1.0045401 1.029807 1.0200721 0.98010033 0.9938305
0.9933016 1.0275906 0.99811435 1.0104101 0.9803445 1.0093412 1.0111297 1.0041461
1.0143392 1.0025014 1.0022892 0.9590553 1.0338194 1.0479401 1.0003208 1.0285821
1.0005022 0.9756486 1.0298375 0.99511135 1.0014702 1.0136791 1.0009053 0.99556094
00000000: 067f 7e3f 0b37 7e3f 617a 823f 0249 773f
00000010: 62b2 813f ab6c 813f be6f 7b3f 8bb1 7a3f
00000020: 3550 7f3f 47b4 7c3f dd6e 7e3f 18d9 7f3f
00000030: 1b57 7f3f 9c9e 753f 4c11 7c3f 55de 7e3f
00000040: b339 803f 81be 813f aecd 813f 72ba 7d3f
00000050: e9b2 7e3f d11b 7e3f 9538 773f 7d76 7f3f
00000060: 3ed8 883f 1c02 813f cdf2 7b3f c6c1 803f
00000070: af05 7a3f 52ea 7d3f bccf 7e3f c219 7f3f
00000080: 9762 803f 9d65 823f 9c41 803f c594 803f
00000090: b7d0 833f b991 823f dbe7 7a3f ad6b 7e3f
000000a0: 0349 7e3f 1788 833f 6c84 7f3f 1e55 813f
000000b0: dbf7 7a3f 1832 813f b36c 813f dc87 803f
000000c0: ded5 813f f751 803f 034b 803f a684 753f
000000d0: 3254 843f e722 863f 830a 803f 94a8 833f
000000e0: 7510 803f 1bc4 793f b7d1 833f 9ebf 7e3f
000000f0: 2d30 803f 3dc0 813f aa1d 803f 15dd 7e3f

inc.double_conv.1.bias f4 [64]
-0.0018389635 -0.029674154 0.026695669 -0.027545668 0.004938458 -0.013779367 -0.03270668 -0.02088079
-0.02617049 -0.017577045 0.013410146 -0.025294028 -0.001604626 -0.04977934 -0.0040986827 -0.016077612
0.0059917527 -0.030230623 -0.010040773 -0.0080098 -0.0055027427 -0.011177573 -0.03516356 -0.031693663
-0.0080061015 0.030445598 -0.036675233 0.0043736068 -0.02278313 -0.014473064 0.02071491 0.011582348
0.005360313 0.0029452303 -0.01612183 0.014492693 -0.032298833 -0.018948339 -0.004141495 -0.013537461
0.0018423911 0.0153610995 -0.0027252487 -0.021494735 -0.013641461 -0.0014654712 -0.0070617893 -0.04479276
0.02012961 0.0023124698 -0.011820161 -0.043249473 -0.033970684 0.018497251 -0.019864623 -0.00054998667
0.010005831 -0.02277782 0.03047919 -0.0073247934 0.00039044177 0.023033211 0.021373421 -0.0038818265
00000000: 6009 f1ba 3617 f3bc e0b0 da3c 74a7 e1bc
00000010: cad2 a13b dbc2 61bc 71f7 05bd 310e abbc
00000020: 7f63 d6bc bcfd 8fbc 3bb6 5b3c 6c35 cfbc
00000030: 5052 d2ba 6ce5 4bbd 3e4e 86bb 32b5 83bc
00000040: 7756 c43b 36a6 f7bc 0e82 24bc 893b 03bc
00000050: 5a50 b4bb 2422 37bc aa07 10bd 37d1 01bd
00000060: 062c 03bc 0c69 f93c c538 16bd 7950 8f3b
00000070: b0a3 babc 6e20 6dbc 51b2 a93c e3c3 3d3c
00000080: 91a5 af3b c404 413b ee11 84bc c372 6d3c
00000090: c84b 04bd 8c39 9bbc 61b5 87bb 3acc 5dbc
000000a0: 637c f13a 1fad 7b3c 169a 32bb ba15 b0bc
000000b0: 6f80 5fbc 0e15 c0ba 9566 e7bb 9d78 37bd
000000c0: dae6 a43c ce8c 173b 59a9 41bc 5c26 31bd
000000d0: d824 0bbd 8c87 973c 22bb a2bc fb2c 10ba
000000e0: 7fef 233c 8d98 babc 7faf f93c d204 f0bb
000000f0: 35b4 cc39 25b0 bc3c 5017 af3c 3e66 7ebb

inc.double_conv.1.running_mean f4 [64]
0.18434045 -0.0012380051 -0.084965676 -0.5924458 0.20441325 0.17365848 -0.6106686 0.45724493
-0.16203047 -0.26956317 -0.17608292 -0.06168365 0.50276875 0.5341385 0.3601543 0.61961675
-0.09110564 0.022005267 0.02330622 0.34183863 0.38835004 0.77909523 -0.78803045 0.27835542
0.035362232 -0.0037947758 -0.2606923 -0.044375867 -0.18136744 -0.12841283 -0.055602703 0.022597395
-0.12832928 -0.13913769 0.1899624 0.0028907787 0.10786831 -0.025973417 -0.3253854 0.41179115
-0.09276429 0.27340204 0.2806727 0.09879799 -0.7141373 -0.06549801 0.29096097 0.057722885
0.046186868 0.24147213 -0.09820683 -0.34597942 0.16456707 0.021498738 0.104761064 0.010637181
0.36835378 -0.77450866 -0.075606 0.3698897 0.38944364 -0.015013356 0.21446013 -0.06993159
00000000: bec3 3c3e 8f44 a2ba 7c02 aebd 87aa 17bf
00000010: b551 513e 87d3 313e c754 1cbf 021c ea3e
00000020: 51eb 25be 2f04 8abe 154f 34be ffa7 7cbd
00000030: 74b5 003f 4dbd 083f 2566 b83e 349f 1e3f
00000040: 9895 babd 6444 b43c b0ec be3c 7905 af3e
00000050: d1d5 c63e c972 473f 5dbc 49bf 9a84 8e3e
00000060: fdd7 103d c6b1 78bb 7679 85be 78c3 35bd
00000070: 63b8 39be a77e 03be a9bf 63bd 2c1e b93c
00000080: c068 03be 1c7a 0ebe 8185 423e 3873 3d3b
00000090: 0fea dc3d 34c6 d4bc ea98 a6be 4ad6 d23e
000000a0: 34fb bdbd 5afb 8b3e 55b4 8f3e 9a56 ca3d
000000b0: b4d1 36bf d223 86bd d6f8 943e d56e 6c3d
000000c0: 712e 3d3d 7844 773e aa20 c9bd 3724 b1be
000000d0: 4584 283e 1f1e b03c f88c d63d 9247 2e3c
000000e0: de98 bc3e 3346 46bf 52d7 9abd 2f62 bd3e
000000f0: 2865 c73e 94fa 75bc 709b 5b3e 4b38 8fbd

inc.double_conv.1.running_var f4 [64]
0.040473737 0.0021516692 0.018115193 0.03581182 0.02089028 0.017781135 0.04022864 0.025874836
0.01119022 0.016440837 0.025858762 0.0024703722 0.02565023 0.028324915 0.011684128 0.04811972
0.006156427 0.002825734 0.019016227 0.036063273 0.020961566 0.055489045 0.055746906 0.010816692
0.0060103033 0.010897551 0.014251504 0.01376993 0.006631981 0.029813323 0.001991856 0.010153034
0.0061908416 0.03012219 0.02018104 0.0027798319 0.00884068 0.005369405 0.011490284 0.021459315
0.010480883 0.038411103 0.015608708 0.016658625 0.049260728 0.008176538 0.028687548 0.0013354155
0.0045203613 0.014880116 0.011164289 0.016926302 0.009843851 0.008360913 0.0027045144 0.0036618437
0.01273252 0.074671775 0.005873294 0.019710941 0.038307108 0.0031054923 0.013111213 0.0023255672
00000000: cac7 253d 0503 0d3b 5066 943c 6aaf 123d
00000010: 1822 ab3c bea9 913c c9c6 243d 77f7 d33c
00000020: 2f57 373c efae 863c c1d5 d33c f8e5 213b
00000030: 6e20 d23c a709 e83c c96e 3f3c 2f19 453d
00000040: dabb c93b f32f 393b ebc7 9b3c 15b7 133d
00000050: 97b7 ab3c 7b48 633d de56 643d 7f38 313c
00000060: 14f2 c43b a48b 323c 247f 693c 469b 613c
00000070: 1751 d93b 123b f43c cc89 023b e958 263c
00000080: 8bdc ca3b d0c2 f63c b552 a53c d72d 363b
00000090: 80d8 103c d5f1 af3b bf41 3c3c 72cb af3c
000000a0: 02b8 2b3c f654 1d3d abbb 7f3c ab77 883c
000000b0: 9ec5 493d e3f6 053c 2602 eb3c 1c09 af3a
000000c0: 8a1f 943b bbcb 733c 6cea 363c 07a9 8a3c
000000d0: 1b48 213c 36fc 083c 393e 313b 8bfb 6f3b
000000e0: 0f9c 503c 84ed 983d c374 c03b d778 a13c
000000f0: eae7 1c3d 8485 4b3b 6ad0 563c 8b68 183b

down1.maxpool_conv.0.double_conv.0.weight f4 [128, 64, 3, 3]
-0.0031009675 -0.014211981 0.004173812 0.005999636 0.023362396 -0.025195481 0.020336382 0.04456354
0.03227087 -0.025466377 -0.03602295 0.00086993387 -0.03170874 0.0157267 -0.019663708 -0.046599664
0.028085541 -0.040775366 0.010473222 0.021635583 0.009907079 -0.0075552748 -0.02099557 -0.01490448
-0.010292475 0.035029437 0.019361224 -0.037886705 0.0062031914 0.0067870333 0.03647394 -0.027627824
0.010477084 -0.017204002 0.018172402 -0.021085672 0.036798984 -0.0018276905 -0.024146462 -0.010271364
-0.0052415873 -0.0014315516 -0.025643405 -0.026988205 0.017372385 -0.026710022 -0.050261796 0.0038342867
-0.018711466 0.01059307 -0.0039598234 -0.0008920632 -0.008298125 0.0048719416 -0.040279325 0.0018943347
0.04206996 0.0036351208 0.024276676 0.04864192 -0.019805243 -0.00093404134 -0.029935228 -0.0059578125
-0.012364086 -0.022315847 0.014438279 0.019391183 0.015378092 0.013727548 0.045814198 -0.021217497
0.008077237 0.041609447 -0.03337328 0.006804602 0.035623018 0.04651776 -0.05504723 0.01827297
0.04760751 -0.027937127 -0.019606818 0.02168595 -0.047853686 0.018267792 -0.021617172 -0.04421247
-0.036848966 0.029153274 0.004343278 -0.0344157 0.025359979 -0.022715438 -0.03921703 0.0062780394
-0.028184108 -0.029675908 -0.024953036 -0.032786958 0.02471519 -0.029852273 -0.023767043 0.039409325
-0.0025571776 -0.018826097 0.009244653 -0.047252595 -0.049227927 0.013259104 0.002452091 0.033738732
0.0072204717 0.033434417 -0.0038801634 -0.036423076 0.032110382 0.021537172 0.024890594 0.028761193
-0.0106103225 0.026883146 -0.004047087 -0.0038466656 -0.012791092 0.0276332 0.010719175 0.029990219
-0.030688804 -0.053689867 -0.03474167 -0.012916377 -0.022428438 0.031440847 -0.0041267825 0.037211027
0.0011525314 -0.021871636 0.0012595768 0.016114023 0.017201964 -0.0011530776 0.012514081 -0.010814961
0.010237332 0.012197027 -0.0131706055 -0.021215482 0.06101123 0.035400525 0.020736914 0.0031084379
0.036994748 0.027391031 0.02865719 0.01844627 0.012620799 0.03794581 0.011206793 -0.015476934
0.01529083 -0.009285551 0.025068993 -0.033512317 0.016029585 0.024811879 0.05366239 0.0044332524
-0.0035623063 0.035401866 0.032230332 0.033047408 0.037783626 -0.03271455 0.024822196 0.003918149
0.020741895 0.030928968 0.018408323 -0.011707015 0.016406557 -0.015710324 -0.03157882 -0.006380336
-0.04405738 0.0032164808 0.011573714 0.01446882 0.03865228 -0.045287635 -0.03185244 -0.012297758
-0.01597883 -0.014252321 0.036126364 -0.0011779033 0.020521268 -0.0071178027 0.0063851 0.018742029
-0.02356606 -0.009936419 0.024007743 0.030440029 -2.21457e-05 -0.018677365 0.028780844 0.014293429
0.0038861064 -0.044477317 0.016933514 0.0059204944 -0.028317979 -0.040699977 0.028519759 0.023832377
0.01615079 0.06438056 -0.015591715 0.011142202 0.059101522 0.008500008 0.008398387 0.007467454
0.015413781 -0.041877046 -0.054516446 -0.009842777 -0.018174093 -0.009601654 -0.0066004484 0.031865947
0.03379924 -0.0059160567 -0.007861045 0.0226929 -0.01708832 -0.0045817597 -0.044117924 -0.016730722
0.0011562651 -0.03133535 -0.029237159 0.029712953 0.021665348 0.010328182 0.013044524 0.042728744
-0.015922617 -0.019694488 -0.0147951385 -0.002983948 -0.010909318 -0.0044462555 0.012347999 -0.00064297597
00000000: 9a39 4bbb 5ed9 68bc 79c4 883b 9898 c43b
00000010: 7f62 bf3c c166 cebc 7c98 a63c 4288 363d
00000020: 762e 043d dd9e d0bc cd8c 13bd 460c 643a
00000030: 06e1 01bd 48d5 803c c915 a1bc 4adf 3ebd
00000040: a613 e63c 1204 27bd e097 2b3c 1b3d b13c
00000050: 4d51 223c 3d92 f7bb e7fe abbc ec31 74bc
00000060: c5a1 28bc 077b 0f3d 6e9b 9e3c 172f 1bbd
00000070: 2444 cb3b c365 de3b b365 153d bf53 e2bc
00000080: 13a8 2b3c 68ef 8cbc 4ade 943c dcbb acbc
00000090: 88ba 163d 1e8f efba cdce c5bc 3949 28bc
000000a0: 9fc1 abbb e7a2 bbba 1e12 d2bc 5e16 ddbc
000000b0: 8850 8e3c face dabc 50df 4dbd a848 7b3b
000000c0: ca48 99bc 8e8e 2d3c 68c1 81bb 59d9 69ba
000000d0: dcf4 07bc cfa4 9f3b effb 24bd 534b f83a
000000e0: 8d51 2c3d 353b 6e3b e1df c63c c03c 473d
000000f0: 9b3e a2bc 74da 74ba b93a f5bc c139 c3bb
00000100: bc92 4abc b9cf b6bc 888e 6c3c 42da 9e3c
00000110: 65f4 7b3c 82e9 603c aba7 3b3d 51d0 adbc
00000120: 6356 043c ab6e 2a3d 6cb2 08bd 24f9 de3b
00000130: 71e9 113d 6889 3e3d 3479 61bd 32b1 953c
00000140: 1800 433d 67dc e4bc 7a9e a0bc bca6 b13c
00000150: 3a02 44bd 56a6 953c 7f16 b1bc 2318 35bd
00000160: f1ee 16bd d9d2 ee3c 0e52 8e3b 7af7 0cbd
00000170: bbbf cf3c ba15 babc 09a2 20bd 03b8 cd3b
00000180: 5ce2 e6bc e41a f3bc 4f6a ccbc 9e4b 06bd
00000190: 8377 ca3c c18c f4bc 1ab3 c2bc ac6b 213d
000001a0: 5296 27bb 3039 9abc e376 173c f08b 41bd
000001b0: 39a3 49bd b73c 593c 43b3 203b a031 0a3d
000001c0: b599 ec3b 87f2 083d 574a 7ebb 5d30 15bd
000001d0: 2d86 033d b96e b03c 5ce7 cb3c 989c eb3c
000001e0: ebd6 2dbc 0b3a dc3c 6d9d 84bb 5718 7cbb
000001f0: ba91 51bc 055f e23c 7b9f 2f3c 0cae f53c
00000200: 1667 fbbc e8e9 5bbd 484d 0ebd 369f 53bc
00000210: d8bb b7bc 1ec8 003d f639 87bb 976a 183d
00000220: 8910 973a 252c b3bc 6218 a53a 8e01 843c
00000230: 22eb 8c3c dd22 97ba dc07 4d3c 3c31 31bc
00000240: 7cba 273c 0ad6 473c 86c9 57bc 17cc adbc
00000250: e9e6 793d 2400 113d 76e0 a93c efb6 4b3b
00000260: ce87 173d 2863 e03c 7cc2 ea3c a21c 973c
00000270: 78c7 4e3c 116d 1b3d b29c 373c f792 7dbc
00000280: 6486 7a3c 6c22 18bc 7d5d cd3c 3644 09bd
00000290: 7a50 833c 4842 cb3c 18cd 5b3d d144 913b
000002a0: 9575 69bb 8c01 113d f403 043d b85c 073d
000002b0: 01c3 1a3d b1ff 05bd eb57 cb3c d163 803b
000002c0: e8ea a93c bf5e fd3c 0dcd 963c c8ce 3fbc
000002d0: 0b67 863c f0b2 80bc cb58 01bd 2312 d1bb
000002e0: 8375 34bd 98cb 523b ad9f 3d3c a10e 6d3c
000002f0: da51 1e3d 877f 39bd b477 02bd 897c 49bc
00000300: 09e6 82bc 9182 69bc 3df9 133d e063 9aba
00000310: 381c a83c 753c e9bb 1a3a d13b e288 993c
00000320: 9c0d c1bc 5dcc 22bc e3ab c43c 5e5d f93c
00000330: 87c5 b9b7 4601 99bc cec5 eb3c fd2e 6a3c
00000340: 0cae 7e3b d92d 36bd 27b8 8a3c b500 c23b
00000350: 1bfb e7bc 05b5 26bd 45a2 e93c 1e3c c33c
00000360: a94e 843c f4d9 833d 6574 7fbc c88d 363c
00000370: 7014 723d 9e43 0b3c 6399 093c 8bb1 f43b
00000380: 158a 7c3c 4487 2bbd a34c 5fbd 9943 21bc
00000390: d6e1 94bc 4150 1dbc 9348 d8bb de85 023d
000003a0: 1271 0a3d 7bdb c1bb 9dcb 00bc 76e6 b93c
000003b0: cefc 8bbc 9622 96bb ffb4 34bd de0e 89bc
000003c0: d28d 973a 7f59 00bd c482 efbc 9468 f33c
000003d0: 877b b13c 8937 293c b3b8 553c 5604 2f3d
000003e0: 2670 82bc 5656 a1bc 4f67 72bc 578e 43bb
000003f0: ffbc 32bc e5b1 91bb 434f 4a3c 638d 28ba

down1.maxpool_conv.0.double_conv.1.weight f4 [128]
0.9996365 0.9783519 1.0057795 1.0001303 1.0103759 0.98312664 1.0059891 1.0044007
1.0005287 1.0022068 0.99577296 0.9885159 0.98952794 0.99450827 1.0351213 0.99702626
0.9882664 0.9862599 0.9915245 0.98792934 0.9711778 1.0089748 0.9967097 0.99145633
0.99669594 1.0122072 1.0059648 0.9789889 0.9839283 1.001517 1.0038193 0.99890375
1.0109617 0.98593956 1.0086237 1.0006229 1.0099803 0.997044 1.0189948 1.0069962
1.0030946 0.97411025 0.9905941 1.0166401 0.99994886 0.98828053 1.004929 0.9985637
0.980521 0.9901911 1.0097797 1.0079257 0.9964786 1.0191146 0.9840723 0.99461997
1.016136 1.0033462 0.9945782 1.0001805 1.00491 1.0055784 1.0072774 0.9906959
1.0154344 1.0177163 1.0103943 1.0097967 0.9990792 0.9876744 1.0195099 1.0012032
0.9830943 0.99775016 0.9975763 0.98496276 1.0042415 1.0047275 0.9946789 1.0090959
1.0053462 0.99118286 0.9913582 1.0014484 1.0038241 0.99072486 1.005506 0.99774206
1.0169575 0.9977143 1.010884 0.9813816 0.99153614 0.9973932 1.0102967 0.9894708
0.99581116 1.0125656 0.99990445 1.0056685 0.989508 1.0123017 0.98880404 0.9915579
0.98725975 1.0087823 0.9977433 0.99682134 1.0023065 0.99550855 1.003981 1.004353
1.0051956 0.9981787 1.0122712 1.0102122 0.98754156 0.9802058 1.0056403 1.0210037
1.0012342 0.9865267 0.99317217 0.97276616 0.990024 1.0058694 0.9955401 0.98343
00000000: 2de8 7f3f 4575 7a3f 62bd 803f 4504 803f
00000010: ff53 813f 30ae 7b3f 40c4 803f 3490 803f
00000020: 5311 803f 5048 803f faea 7e3f 610f 7d3f
00000030: b451 7d3f 1898 7e3f db7e 843f 1d3d 7f3f
00000040: 07ff 7c3f 877b 7c3f 8dd4 7d3f f0e8 7c3f
00000050: 1c9f 783f 1626 813f 5e28 7f3f 15d0 7d3f
00000060: 7727 7f3f 0190 813f 74c3 803f 049f 7a3f
00000070: bae2 7b3f b631 803f 277d 803f 28b8 7f3f
00000080: 3167 813f 8966 7c3f 951a 813f 6914 803f
00000090: 0947 813f 473e 7f3f 6c6e 823f 40e5 803f
000000a0: 6765 803f 4a5f 793f 9397 7d3f 4321 823f
000000b0: a6fc 7f3f f4ff 7c3f 83a1 803f dfa1 7f3f
000000c0: 6d03 7b3f 2a7d 7d3f 7640 813f b603 813f
000000d0: 3919 7f3f 5972 823f 2aec 7b3f 6a9f 7e3f
000000e0: bf10 823f a66d 803f ad9c 7e3f ea05 803f
000000f0: e4a0 803f cbb6 803f 77ee 803f 3f9e 7d3f
00000100: c1f9 813f 8744 823f 9a54 813f 0541 813f
00000110: a8c3 7f3f 3bd8 7c3f 4d7f 823f 6d27 803f
00000120: 11ac 7b3f 8e6c 7f3f 2961 7f3f 8526 7c3f
00000130: fc8a 803f e99a 803f 47a3 7e3f 0e2a 813f
00000140: 2faf 803f 29be 7d3f a7c9 7d3f 762f 803f
00000150: 4f7d 803f 25a0 7d3f 6cb4 803f 066c 7f3f
00000160: aa2b 823f 346a 7f3f a664 813f d33b 7b3f
00000170: 50d5 7d3f 2955 7f3f 6751 813f f54d 7d3f
00000180: 7bed 7e3f c09b 813f bdf9 7f3f bfb9 803f
00000190: 6550 7d3f 1a93 813f 4322 7d3f bdd6 7d3f
000001a0: 0ebd 7c3f c71f 813f 1b6c 7f3f af2f 7f3f
000001b0: 944b 803f a6d9 7e3f 7382 803f a48e 803f
000001c0: 40aa 803f a488 7f3f 1a92 813f a24e 813f
000001d0: 86cf 7c3f c4ee 7a3f d2b8 803f 40b0 823f
000001e0: 7128 803f 048d 7c3f 8840 7e3f 3407 793f
000001f0: 3672 7d3f 54c0 803f b7db 7e3f 12c2 7b3f

down1.maxpool_conv.0.double_conv.1.bias f4 [128]
-0.018714711 -0.034280065 -0.026225207 5.7185895e-05 -0.02275473 -0.031651665 0.0021268523 -0.0061482405
-0.024449477 -0.014295551 -0.02629778 -0.0508221 -0.028782904 -0.023354163 -0.014377803 0.0024753807
-0.027714565 -0.022274224 -0.02314095 -0.01536614 -0.016993444 -0.02154974 -0.0106610535 -0.02657516
-0.007556852 -0.0178737 0.0047932346 -0.04412361 -0.030516896 -0.050774265 -0.014711297 -0.0015512859
0.00909847 -0.026165908 0.00013381262 -0.011433464 0.006193657 -0.015292842 -0.01261903 -0.008025799
-0.022675965 -0.012672342 -0.01816348 -0.017235098 -0.017967222 -0.02492012 -0.04038242 -0.039612968
-0.020714458 -0.024526017 -0.03134212 -0.021359654 -0.035697542 -0.04030445 -0.040497635 -0.003993457
-0.025050266 -0.021116395 -0.029404677 -0.020201547 -0.016235076 -0.00653255 -0.006491236 -0.04180385
-0.029296497 -0.020751286 -0.011376104 -0.02314042 -0.024777876 -0.00937448 -0.03744636 -0.019330168
-0.051877342 -0.013204306 -0.003574996 -0.033248413 -0.054204643 -0.0479856 -0.047715545 -0.026155327
-0.016315745 -0.024248382 -0.008891163 -0.03677055 -0.020920852 -0.036548357 -0.022524836 -0.042669382
0.007658847 -0.026756953 -0.025974318 -0.04815738 -0.035922427 -0.0013426773 -0.016100978 -0.02936703
-0.048208106 -0.040259812 -0.02370387 -0.03565263 -0.02422693 -0.025345648 -0.024861732 -0.032233916
-0.033158805 -0.0073269024 -0.046918847 -0.01630122 -0.015478203 -0.023336848 -0.043100044 -0.014272642
-0.01580225 -0.0051983334 -0.023593754 0.008848851 -0.023114441 -0.01740197 -0.020664029 -0.020328986
-0.0122935455 -0.023115087 -0.02292816 -0.027596338 -0.026262542 -0.014222999 -0.021308323 -0.024223391
00000000: 984f 99bc 4169 0cbd 3fd6 d6bc e3da 6f38
00000010: 2168 babc 2da5 01bd a962 0b3b 2e77 c9bb
00000020: 454a c8bc e337 6abc 716e d7bc d62a 50bd
00000030: 20ca ebbc 3b51 bfbc e090 6bbc ff39 223b
00000040: a809 e3bc 6f78 b6bc 1792 bdbc 43c2 7bbc
00000050: d635 8bbc 1589 b0bc b3ab 2ebc 26b4 d9bc
00000060: 789f f7bb de6b 92bc 9110 9d3b f5ba 34bd
00000070: 92fe f9bc adf8 4fbd a707 71bc 8454 cbba
00000080: c011 153c e359 d6bc 0d50 0c39 6c53 3bbc
00000090: 29f4 ca3b d48e 7abc 0cc0 4ebc a47e 03bc
000000a0: f2c2 b9bc a89f 4fbc 94cb 94bc 9f30 8dbc
000000b0: ff2f 93bc 4825 ccbc 0968 25bd 3541 22bd
000000c0: 5eb1 a9bc c9ea c8bc 9860 00bd 71fa aebc
000000d0: 9637 12bd 4716 25bd d9e0 25bd 8cdb 82bb
000000e0: 3736 cdbc 4afc acbc 14e2 f0bc b77d a5bc
000000f0: 6cff 84bc 000f d6bb 6fb4 d4bb 843a 2bbd
00000100: 35ff efbc 9afe a9bc d762 3abc fa90 bdbc
00000110: f9fa cabc 6b97 19bc 5b61 19bd 4d5a 9ebc
00000120: 567d 54bd e056 58bc 7b4a 6abb 7d2f 08bd
00000130: b005 5ebd 8c8c 44bd 6071 43bd b243 d6bc
00000140: 99a8 85bc 8ba4 c6bc 3eac 11bc b79c 16bd
00000150: 3562 abbc bbb3 15bd 0186 b8bc 17c6 2ebd
00000160: 11f7 fa3b 6631 dbbc 18c8 d4bc ac40 45bd
00000170: 6523 13bd c6fc afba 33e6 83bc 2093 f0bc
00000180: dd75 45bd 79e7 24bd 9e2e c2bc 7e08 12bd
00000190: 8e77 c6bc ada1 cfbc d5aa cbbc b607 04bd
000001a0: 87d1 07bd 8316 f0bb fa2d 40bd 238a 85bc
000001b0: 4a98 7dbc eb2c bfbc ac89 30bd cdd7 69bc
000001c0: b873 81bc c856 aabb b047 c1bc c5fa 103c
000001d0: 7f5a bdbc 948e 8ebc 9c47 a9bc f988 a6bc
000001e0: de6a 49bc da5b bdbc d6d3 bbbc b711 e2bc
000001f0: 8b24 d7bc 9507 69bc cb8e aebc 2270 c6bc

down1.maxpool_conv.0.double_conv.1.running_mean f4 [128]
0.09072544 0.056276828 -0.6858249 -0.9600122 -0.15746202 -0.26243877 -0.28224894 -0.6196545
0.007059538 -0.625595 -0.25150517 0.31214517 -0.30890694 0.25069433 -0.24472332 0.14783518
-0.0992625 -0.4556343 0.08502955 0.08522993 0.24272025 -0.20392689 0.12557906 -0.0086105615
-0.0044351546 -0.43019652 -0.8756202 -0.196675 0.5227813 0.41471273 0.62855816 -0.2891838
-0.5003103 0.095460005 -0.47052443 0.1961766 -0.75628304 -0.16175668 -0.54597294 -0.15069371
0.09667083 -0.94014156 0.17953965 -0.5404029 -0.17691597 -0.07186182 -0.29638135 -0.69082063
-0.19526418 0.09174116 -0.08854451 -0.20668554 0.3549222 -0.40440807 0.69828534 -0.3895454
-0.2714513 0.53726333 -0.091194965 -0.062995836 -0.67644924 -1.0658401 -0.2068552 0.22480768
-0.5741323 -0.6124574 -0.567951 0.7102654 -0.2688884 0.109771684 -0.26365826 0.4443349
0.948804 -0.7931293 0.72765577 0.18646656 -0.10890302 -0.09552692 0.09862087 -0.19966196
0.03482229 0.0108324485 0.20519266 -0.08754214 -0.07517905 0.24249338 0.2061028 0.14953634
-0.98034984 -0.03677882 -0.13331875 0.05308455 0.07700715 0.4228341 -0.4851128 0.1596169
0.020815566 -0.6528282 0.1932437 -0.34201923 -0.23160698 -0.4425199 -0.26379415 0.14600603
0.042375144 -0.2796299 0.066345826 0.6095331 -0.27112943 -0.3451799 0.12764202 -0.2551486
0.30074993 -0.5481143 -0.6973883 -0.59069216 -0.42333832 0.061768338 0.115627736 -0.36934298
0.49688312 -0.32848725 0.062966414 0.031051496 0.0512596 0.022818528 -0.012851604 -0.09140154
00000000: 42ce b93d 8882 663d 3892 2fbf 5cc3 75bf
00000010: b93d 21be 605e 86be ef82 90be ada1 1ebf
00000020: b253 e73b fe26 20bf 49c5 80be 7ed1 9f3e
00000030: 0d29 9ebe 025b 803e c098 7abe 1b62 173e
00000040: 234a cbbd e648 e9be f923 ae3d 088d ae3d
00000050: a88b 783e 36d2 50be cc97 003e 5013 0dbc
00000060: c654 91bb b842 dcbe a528 60bf 2c65 49be
00000070: ffd4 053f 3a55 d43e 30e9 203f e60f 94be
00000080: 5614 00bf 8980 c33d 94e8 f0be 85e2 483e
00000090: c49b 41bf 8ba3 25be e2c4 0bbf 744f 1abe
000000a0: 5bfb c53d 1ead 70bf 3ed9 373e d857 0abf
000000b0: 7629 35be 4a2c 93bd 4cbf 97be 9fd9 30bf
000000c0: 55f3 47be cae2 bb3d d356 b5bd 60a5 53be
000000d0: 5db8 b53e 930e cfbe d4c2 323f 7f72 c7be
000000e0: aafb 8abe 178a 093f 6dc4 babd f603 81bd
000000f0: c72b 2dbf 736d 88bf d9d1 53be fc33 663e
00000100: 56fa 12bf 02ca 1cbf 3d65 11bf f4d3 353f
00000110: beab 89be facf e03d 37fe 86be dd7f e33e
00000120: d2e4 723f 860a 4bbf a647 3a3f 17f1 3e3e
00000130: 8c08 dfbd 9ea3 c3bd bdf9 c93d 2f74 4cbe
00000140: d1a1 0e3d 957a 313c 061e 523e 4b49 b3bd
00000150: 79f7 99bd 2f50 783e 9d0c 533e 0e20 193e
00000160: 35f8 7abf 63a5 16bd b684 08be 2f6f 593d
00000170: edb5 9d3d b67d d83e b460 f8be 9d72 233e
00000180: 6885 aa3c c01f 27bf ade1 453e 251d afbe
00000190: 612a 6dbe f891 e2be 0710 87be 9b82 153e
000001a0: 8f91 2d3d a62b 8fbe 52e0 873d 5c0a 1c3f
000001b0: 7ad1 8abe 6bbb b0be 97b4 023e d6a2 82be
000001c0: e5fb 993e 3851 0cbf 0a88 32bf 9a37 17bf
000001d0: cdbf d8be cc00 7d3d 3cce ec3d 861a bdbe
000001e0: 7767 fe3e 7b2f a8be 89f4 803d b55f fe3c
000001f0: 96f5 513d eced ba3c 898f 52bc bb30 bbbd

down1.maxpool_conv.0.double_conv.1.running_var f4 [128]
0.1866359 0.09037462 0.18494937 0.45466074 0.22945014 0.20724685 0.20429136 0.32298002
0.26799533 0.304587 0.16794086 0.32195762 0.19572668 0.18390049 0.17302702 0.18026331
0.184999 0.4354898 0.11978618 0.30429965 0.14078204 0.14194708 0.17612055 0.13100143
0.3412404 0.18042295 0.30464998 0.39195353 0.18833652 0.23631907 0.27866232 0.25540364
0.378548 0.35233033 0.16458018 0.27606696 0.29716852 0.21105196 0.25970322 0.45466486
0.29463005 0.6282914 0.51825815 0.1594231 0.23788652 0.1399794 0.110463075 0.43393075
0.34083956 0.14153185 0.27474633 0.18267319 0.28937668 0.2547274 0.3966389 0.20388983
0.16900572 0.3247735 0.23650749 0.1262685 0.28909302 0.35425597 0.29952013 0.09288205
0.28626394 0.40262622 0.4929994 0.40460968 0.2122074 0.23580107 0.18385355 0.19015099
0.2558401 0.85671663 0.38283306 0.20398316 0.31152427 0.09560994 0.13972671 0.24358808
0.2127368 0.27268416 0.26854178 0.10530577 0.16333775 0.26663855 0.18047266 0.26045665
0.49063495 0.17600209 0.35240296 0.14367251 0.25296825 0.39983645 0.3268009 0.122173466
0.14188968 0.51513875 0.23646234 0.4199011 0.40299687 0.31734252 0.1861748 0.31853426
0.11250779 0.08737485 0.22836465 0.19529325 0.20652294 0.18528236 0.08681365 0.12880464
0.43320465 0.14731717 0.35980633 0.39083153 0.15576781 0.21601374 0.24072896 0.32280254
0.21477543 0.5755349 0.11239012 0.23719339 0.13571648 0.21574804 0.22859226 0.3258603
00000000: 7b1d 3f3e 5416 b93d 5e63 3d3e 4bc9 e83e
00000010: faf4 6a3e 8538 543e c131 513e a35d a53e
00000020: af36 893e d4f2 9b3e b0f8 2b3e a1d7 a43e
00000030: 936c 483e 6950 3c3e ff2d 313e f296 383e
00000040: 6170 3d3e 85f8 de3e 7552 f53d 2acd 9b3e
00000050: 2b29 103e 935a 113e f258 343e 3d25 063e
00000060: 10b7 ae3e cbc0 383e 15fb 9b3e 22ae c83e
00000070: 4adb 403e a0fd 713e d4ac 8e3e 44c4 823e
00000080: 0bd1 c13e a464 b43e b587 283e a658 8d3e
00000090: 7926 983e 011e 583e d2f7 843e d5c9 e83e
000000a0: c0d9 963e b5d7 203f 91ac 043f cf3f 233e
000000b0: 8698 733e c356 0f3e 773a e23d 2c2c de3e
000000c0: 8682 ae3e baed 103e 8dab 8c3e ae0e 3b3e
000000d0: 2e29 943e a16b 823e 4114 cb3e 7fc8 503e
000000e0: d60f 2d3e b648 a63e 052f 723e 884c 013e
000000f0: 0004 943e 0a61 b53e b45a 993e f238 be3d
00000100: 3091 923e 0625 ce3e 6b6a fc3e 0029 cf3e
00000110: e64c 593e d675 713e 1b44 3c3e f1b6 423e
00000120: 79fd 823e c851 5b3f b202 c43e f6e0 503e
00000130: 1c80 9f3e 25cf c33d 8514 0f3e 276f 793e
00000140: add7 593e 429d 8b3e 4f7e 893e 8daa d73d
00000150: 0342 273e d984 883e d3cd 383e 935a 853e
00000160: 8134 fb3e e439 343e 296e b43e e31e 133e
00000170: 0e85 813e 5db7 cc3e 7352 a73e 1536 fa3d
00000180: 874b 113e 22e0 033f 2f23 723e 47fd d63e
00000190: 9b55 ce3e b87a a23e 9ba4 3e3e ec16 a33e
000001a0: 7c6a e63d 96f1 b23d 6cd8 693e f4fa 473e
000001b0: c07a 533e a9ba 3d3e 5bcb b13d 5de5 033e
000001c0: 00cd dd3e 50da 163e 8938 b83e 121b c83e
000001d0: 9981 1f3e b532 5d3e a781 763e 6046 a53e
000001e0: 17ee 5b3e 4156 133f cb2c e63d d3e2 723e
000001f0: 43f9 0a3e 0eed 5c3e 1714 6a3e 29d7 a63e

down4.double_conv.0.weight f4 [64, 128, 3, 3]
0.019700278 0.014620538 -0.008759704 -0.0055251094 0.027349856 0.04243465 0.013500783 0.0089401705
0.014130191 -0.015886566 -0.011167687 0.026574584 -0.025240758 0.022317598 0.0020574527 -0.0056834426
0.007287904 0.024528392 0.03667027 -0.014344398 0.0010497662 0.029787295 -0.0047373003 -0.0014367739
-0.023103002 0.017626343 0.015546868 -0.021288088 -0.011826823 -0.03579168 -0.021639423 -0.026398627
0.002064777 0.020264661 0.020410521 0.021977 -0.012241636 0.0014411312 0.01884136 -0.030660598
0.011510105 -0.007949578 -0.033166185 0.0076231803 0.0040824874 -0.019248666 -0.01727416 -0.0020390132
0.0038411384 0.011294351 -0.020773947 -0.027588213 0.02249888 -0.015836004 -0.0019967707 0.009383407
0.007484624 -0.012826986 -0.013228388 -0.025011618 -0.012887187 -0.0017202604 0.024934586 -0.021967595
-0.0018924553 -0.027891593 -0.03420208 -0.041397084 0.0045654513 0.009405278 0.011673576 0.014706203
-0.017718943 0.0043137097 0.01848812 -0.012834326 -6.756615e-05 -0.015491539 0.041350186 -0.010053387
0.0006674319 -0.055562068 -0.02892335 -0.007821865 -0.009390265 -0.019051276 -0.014360658 0.011077003
0.008138998 0.029013624 -0.02109692 -0.021806981 0.04876858 -0.011176334 -0.0039493064 -0.028880667
-0.03725695 0.005585065 0.018265776 -0.0016188147 0.006380301 -0.002338629 0.020186262 -0.010787152
-6.78553e-05 0.010053329 -0.0021249186 0.017758666 0.02499604 -0.030939028 -0.0031379592 0.013135412
-0.037290398 0.0037743908 0.02786577 -0.0046348507 -0.0141984 -0.018700337 -0.007022526 0.019100687
0.025011795 0.009657598 -0.0014304573 -0.0026505075 -0.005732485 -0.021684041 -0.043089096 -0.017115343
-0.019961484 -0.047095507 -0.016442603 0.012181109 -0.031478938 0.0009411611 0.0016634541 0.004903085
0.018541006 -0.005368493 0.0035431304 0.006676488 0.028631888 -0.00277406 -0.015696177 0.0177286
0.014768271 0.0019872882 -0.036155824 0.018614374 -0.008028626 0.00776902 -0.02033639 -0.019526526
-0.0011797643 -0.009191836 0.012169407 0.018907938 0.011832847 -0.0040671164 0.015897075 -0.0163917
-0.0045212395 0.020940222 0.022365944 0.020046461 -0.012834909 0.022117436 0.005000926 -0.017242689
-0.012149735 0.035471268 0.008525154 -0.03459848 -0.052677836 -0.0081761805 -0.032010097 -0.027170923
0.0015932975 -0.004592948 -0.015384014 -0.019189924 0.0070524323 0.0072743734 0.0012453339 -0.015584876
0.03232864 0.015346076 0.0122186905 -0.015712874 -0.030537833 -0.007711435 0.00577966 0.029108366
-0.025436543 0.013614201 0.022077845 0.0031451974 -0.008292159 -0.00716524 0.025418494 0.011365291
0.031070145 0.0002582082 -0.006118975 0.003858005 0.007890846 -0.021507699 -0.014491484 -0.026478535
0.0017685086 -0.009212653 0.0149698 0.0100286435 -0.014383475 -0.011842904 -0.015995095 0.017333366
0.023929436 0.016408768 0.02101204 0.012540513 0.03126011 -0.01115049 0.0037770076 0.007016565
0.0039456673 0.01680368 -0.024072604 -0.002067031 -0.025241215 -0.01204867 0.0036119756 -0.01496372
-0.032731608 0.013383695 0.04184969 -0.014939423 0.036877625 -0.010574729 -0.0053423 0.030872494
0.010712033 -0.0024488315 0.00772657 0.008454159 -0.013897756 0.018371262 -0.021093756 0.004731105
0.03141342 0.0055369935 0.0076012425 0.028428607 -0.0154339 -0.033110578 0.0043030134 -0.025941001
00000000: 7a62 a13c fb8a 6f3c dd84 0fbc fa0b b5bb
00000010: ce0c e03c f5cf 2d3d 6332 5d3c cb79 123c
00000020: 5182 673c 8b24 82bc adf8 36bc f1b2 d93c
00000030: b5c5 cebc 65d3 b63c 54d6 063b 2c3c babb
00000040: 5fcf ee3b c4ef c83c 9133 163d c404 6bbc
00000050: 4f98 893a 7c04 f43c 5b3b 9bbb 2252 bcba
00000060: 8242 bdbc 1f65 903c 4ab8 7e3c 5b64 aebc
00000070: 4bc5 41bc 4c9a 12bd 2945 b1bc ef41 d8bc
00000080: 3651 073b 1302 a63c f733 a73c 1c09 b43c
00000090: 2591 48bc 57e4 bc3a 3259 9a3c ef2b fbbc
000000a0: e194 3c3c f23e 02bc 44d9 07bd dfcb f93b
000000b0: 63c6 853b 61af 9dbc 8a82 8dbc f7a0 05bb
000000c0: 9cbb 7b3b f10b 393c 202e aabc ad00 e2bc
000000d0: 924f b83c 82ba 81bc 41dc 02bb ddbc 193c
000000e0: 9441 f53b 4728 52bc e1bb 58bc 2ae5 ccbc
000000f0: c824 53bc 5c7a e1ba 9e43 cc3c 63f5 b3bc
00000100: 430c f8ba e97c e4bc 7b17 0cbd fd8f 29bd
00000110: c899 953b 9818 1a3c 8742 3f3c 49f2 703c
00000120: 5127 91bc 055a 8d3b 6674 973c 1147 52bc
00000130: 4db2 8db8 39d0 7dbc d05e 293d f6b6 24bc
00000140: 99f6 2e3a 0d95 63bd a9f0 ecbc 4827 00bc
00000150: a0d9 19bc 6c11 9cbc f748 6bbc 517c 353c
00000160: 6f59 053c fbad ed3c 73d3 acbc 8ea4 b2bc
00000170: 90c1 473d f11c 37bc 2f69 81bb 2697 ecbc
00000180: be9a 18bd ec02 b73b 1ca2 953c 682e d4ba
00000190: d811 d13b af43 19bb a95d a53c 98bc 30bc
000001a0: 894d 8eb8 b8b6 243c 3842 0bbb 9f7a 913c
000001b0: 7fc4 cc3c d873 fdbc 38a6 4dbb e935 573c
000001c0: d1bd 18bd c55b 773b c146 e43c f2df 97bb
000001d0: 68a0 68bc 7331 99bc 381d e6bb 0b79 9c3c
000001e0: 89e5 cc3c e73a 1e3c 2f7e bbba 23b4 2dbb
000001f0: 92d7 bbbb bba2 b1bc 317e 30bd 7a35 8cbc
00000200: 4486 a3bc 38e7 40bd a3b2 86bc 4693 473c
00000210: 0ff0 00bd 41b8 763a 4208 da3a 0faa a03b
00000220: 4fe3 973c 2fea afbb dd33 683b 71c6 da3b
00000230: 6c8d ea3c 01cd 35bb 4595 80bc 923b 913c
00000240: 9ef6 713c 2a3d 023b 2118 14bd 2c7d 983c
00000250: 808a 03bc 4393 fe3b 8098 a6bc 18f6 9fbc
00000260: 52a2 9aba 5b99 16bc 3162 473c d2e4 9a3c
00000270: 8fde 413c 7245 85bb 953a 823c e347 86bc
00000280: e826 94bb d48a ab3c c938 b73c 7a38 a43c
00000290: 8349 52bc a02f b53c cfde a33b 8a40 8dbc
000002a0: af0f 47bc 524a 113d 16ad 0b3c 23b7 0dbd
000002b0: b7c4 57bd 63f5 05bc 051d 03bd 8e95 debc
000002c0: 31d6 d03a 7180 96bb 3b0d 7cbc 3034 9dbc
000002d0: 1718 e73b de5d ee3b 793a a33a b557 7fbc
000002e0: 096b 043d 1c6e 7b3c e730 483c 49b8 80bc
000002f0: 7a2a fabc 35b0 fcbb 4d63 bd3b ab74 ee3c
00000300: 4c60 d0bc 190e 5f3c 99dc b43c a81f 4e3b
00000310: d6db 07bc 64ca eabb 723a d03c 7c35 3a3c
00000320: d186 fe3c 1e60 8739 af81 c8bb 95d6 7c3b
00000330: 9b48 013c ea30 b0bc b06d 6dbc 83e9 d8bc
00000340: 4dcd e73a abf0 16bc e443 753c 2e4f 243c
00000350: aba8 6bbc bd08 42bc 2508 83bc b4fe 8d3c
00000360: aa07 c43c ae6b 863c 7121 ac3c b976 4d3c
00000370: 9a0a 003d 8bb0 36bc ac87 773b 37eb e53b
00000380: a84a 813b dfa7 893c e933 c5bc 0777 07bb
00000390: aac6 cebc c967 45bc e5b6 6c3b 642a 75bc
000003a0: 9411 06bd 4947 5b3c 956a 2b3d 7bc4 74bc
000003b0: fe0c 173d a141 2dbc 760e afbb 50e8 fc3c
000003c0: 8681 2f3c 937c 20bb 2b2f fd3b 5083 0a3c
000003d0: 6ab3 63bc 547f 963c d0cc acbc 6307 9b3b
000003e0: 5cab 003d ab6f b53b d813 f93b 1ce3 e83c
000003f0: 78de 7cbc f59e 07bd 4b00 8d3b 3982 d4bc

down4.double_conv.1.weight f4 [64]
1.0552549 1.1757836 1.0517288 1.1830742 1.0772817 1.0520204 1.2038885 1.20395
1.2043333 1.2068971 1.0676258 1.0458524 1.2307836 1.2151495 1.193083 1.1996976
1.2360514 1.2353352 1.0460333 1.0570508 1.0582387 1.0604542 1.215878 1.0561237
1.0494555 1.2226413 1.0644802 1.0587022 1.0760692 1.0649314 1.068311 1.2088293
1.0663935 1.2065353 1.2453706 1.0610428 1.1807585 1.2249159 1.0536463 1.1881833
1.0540367 1.2132967 1.0584327 1.0521849 1.2083502 1.2418703 1.0672506 1.056912
1.0480695 1.063457 1.1922796 1.1602095 1.2139369 1.2227688 1.0634885 1.1180654
1.2417352 1.0510979 1.2623024 1.2171326 1.2119092 1.2082785 1.2599604 1.0645311
00000000: 9812 873f 1480 963f 0d9f 863f fa6e 973f
00000010: 5ee4 893f 9ba8 863f 0519 9a3f 091b 9a3f
00000020: 9827 9a3f 9b7b 9a3f f6a7 883f 7ede 853f
00000030: 518a 9d3f 058a 9b3f f2b6 983f b18f 993f
00000040: ef36 9e3f 771f 9e3f 6be4 853f 714d 873f
00000050: 5e74 873f f7bc 873f e4a1 9b3f 102f 873f
00000060: 8f54 863f 837f 9c3f e340 883f 8e83 873f
00000070: a3bc 893f ac4f 883f 6abe 883f ebba 9a3f
00000080: 957f 883f c06f 9a3f 4e68 9f3f 40d0 873f
00000090: 1823 973f 0bca 9c3f e2dd 863f 6416 983f
000000a0: adea 863f 4e4d 9b3f b97a 873f ffad 863f
000000b0: 38ab 9a3f 9bf5 9e3f ab9b 883f e448 873f
000000c0: 2427 863f 5c1f 883f 9e9c 983f bf81 943f
000000d0: 4962 9b3f b083 9c3f 6420 883f c41c 8f3f
000000e0: 2ef1 9e3f 608a 863f 2093 a13f 00cb 9b3f
000000f0: d71f 9b3f dfa8 9a3f 6246 a13f 8e42 883f

down4.double_conv.1.bias f4 [64]
-0.017662684 0.10250461 -0.0064544464 0.10499399 -0.010202548 0.0012456247 0.12480004 0.12152523
0.13180068 0.1205197 -0.024972381 -0.0036923662 0.12761924 0.12681793 0.10940215 0.12287902
0.10953031 0.12497353 0.0039627906 -0.005501716 -0.0045841793 -0.0050105774 0.12266823 -0.009071658
-0.0013903588 0.118597075 -0.021486871 -0.0033879997 -0.022107465 -0.0142756 -0.02058373 0.11605141
-0.024282714 0.11718349 0.1331985 -0.020237625 0.1061327 0.12690097 -5.894923e-05 0.11152549
-0.0073163956 0.120317005 -0.00019552365 0.006036026 0.123151936 0.124340765 -0.017983897 -0.014030355
-0.006543235 -0.015499356 0.12164438 0.08713785 0.1090988 0.12579161 -0.01772282 0.054230645
0.1230834 -0.003363474 0.13535167 0.13293459 0.13306117 0.112279885 0.15013002 -0.0018258338
00000000: 55b1 90bc f0ed d13d d27f d3bb 1707 d73d
00000010: 9628 27bc 3b44 a33a 2a97 ff3d 38e2 f83d
00000020: c2f6 063e 08d3 f63d e192 ccbc a0fb 71bb
00000030: 9eae 023e 8fdc 013e 3c0e e03d ffa7 fb3d
00000040: 6d51 e03d 1ff2 ff3d 4cda 813b bd47 b4bb
00000050: e236 96bb c52f a4bb 7b39 fb3d 4ba1 14bc
00000060: b33c b6ba 06e3 f23d 3c05 b0bc 3409 5ebb
00000070: b71a b5bc 35e4 69bc 369f a8bc 5dac ed3d
00000080: 8bec c6bc e6fd ef3d 3065 083e 60c9 a5bc
00000090: 1a5c d93d 54f2 013e 4140 77b8 7a67 e43d
000000a0: 60be efbb c368 f63d 7b05 4db9 dbc9 c53b
000000b0: 1537 fc3d 5fa6 fe3d f752 93bc 93df 65bc
000000c0: a268 d6bb 03f1 7dbc b020 f93d 5475 b23d
000000d0: 316f df3d 84cf 003e 732f 91bc f420 5e3d
000000e0: 2613 fc3d bb6d 5cbb a199 0a3e 0120 083e
000000f0: 3041 083e fff2 e53d afbb 193e d150 efba

down4.double_conv.1.running_mean f4 [64]
-0.7453557 0.18899822 0.015855094 0.0024432407 -0.28342572 -0.046312988 0.30343103 -0.13293137
0.023180675 0.059999585 -0.4179935 -0.23616521 0.34406185 0.05891034 -0.031567298 -0.2444339
0.9107623 0.53847355 0.6337967 -0.31987837 0.23216125 -0.40370363 -0.15299065 -0.16353154
-0.15403947 0.4390973 -0.6891677 -0.4855852 -0.05419442 0.02973829 -0.35893637 -0.20602438
-0.37906206 -0.08272907 0.087473 -0.73155266 -0.0033070531 -0.032408886 -0.0058704466 -0.14157191
0.31605345 -0.15380147 0.2746521 0.23031 -0.12564111 0.72287816 -0.6760671 -0.9223084
-0.40855685 -0.76174945 0.09894284 0.16639915 -0.17764296 -0.006635268 -0.76713294 0.010942327
0.023519343 -0.44765893 0.64277357 0.21972382 0.09970774 0.042372573 0.39233685 0.23882878
00000000: a2cf 3ebf c088 413e 8be2 813c c71e 203b
00000010: 2d1d 91be b0b2 3dbd 505b 9b3e 291f 08be
00000020: 66e5 bd3c 20c2 753d 3e03 d6be 4bd5 71be
00000030: e028 b03e f84b 713d b64c 01bd e14c 7abe
00000040: b827 693f 67d9 093f 8040 223f 19c7 a3be
00000050: aebb 6d3e 3eb2 cebe 95a9 1cbe d074 27be
00000060: 86bc 1dbe 5cd1 e03e 4b6d 30bf a09e f8be
00000070: f8fa 5dbd b79d f33c 82c6 b7be 0ef8 52be
00000080: 6c14 c2be dc6d a9bd 0b25 b33d 0947 3bbf
00000090: 25bb 58bb 2ebf 04bd e05c c0bb 3af8 10be
000000a0: c2d1 a13e 227e 1dbe 339f 8c3e 62d6 6b3e
000000b0: 10a8 00be 8b0e 393f bc12 2dbf 671c 6cbf
000000c0: 5d2e d1be 0302 43bf 8ba2 ca3d 8a64 2a3e
000000d0: 09e8 35be aa6c d9bb d362 44bf 7247 333c
000000e0: a3ab c03c 8d33 e5be cf8c 243f 48ff 603e
000000f0: 9233 cc3d dd8e 2d3d 60e0 c83e 888f 743e

down4.double_conv.1.running_var f4 [64]
0.14475009 0.16851525 0.12775591 0.17160134 0.13237594 0.14340131 0.1550119 0.21076512
0.10897831 0.16780153 0.10453661 0.14569917 0.22667712 0.1954453 0.2756315 0.117796145
0.3174023 0.16815472 0.1530609 0.1517722 0.14947884 0.11098488 0.13074441 0.07268607
0.23867445 0.15264522 0.11563714 0.17484638 0.082742 0.08921949 0.08567711 0.16474347
0.11158759 0.08084763 0.12197444 0.14123218 0.15251331 0.16116792 0.1266804 0.15707104
0.09192404 0.10826579 0.19498034 0.21198238 0.23364045 0.21721031 0.11539301 0.13563508
0.2628522 0.16020626 0.23399793 0.12385476 0.21396476 0.26668233 0.12091728 0.12615016
0.20792161 0.12609385 0.28572562 0.14616254 0.19229674 0.16493358 0.2066948 0.15976256
00000000: 5e39 143e 438f 2c3e 72d2 023e 43b8 2f3e
00000010: 8f8d 073e cbd7 123e 71bb 1e3e d0d2 573e
00000020: 0530 df3d 2ad4 2b3e 4a17 d63d 2a32 153e
00000030: 0c1e 683e d022 483e 921f 8d3e 1b3f f13d
00000040: 8e82 a23e c030 2c3e ffbb 1c3e 2c6a 1b3e
00000050: fb10 193e 0a4c e33d dde1 053e 6fdc 943d
00000060: 1367 743e 074f 1c3e 2ad3 ec3d ee0a 333e
00000070: a374 a93d b5b8 b63d 7b77 af3d 83b2 283e
00000080: 0988 e43d 7193 a53d bccd f93d 2b9f 103e
00000090: 732c 1c3e 3409 253e 82b8 013e 3bd7 203e
000000a0: ac42 bc3d 74ba dd3d eda8 473e e911 593e
000000b0: 713f 6f3e 616c 5e3e 2c53 ec3d ece3 0a3e
000000c0: 9094 863e 1c0d 243e 279d 6f3e 90a7 fd3d
000000d0: 9419 5b3e 968a 883e 7ba3 f73d 822d 013e
000000e0: 67e9 543e bf1e 013e a14a 923e a2ab 153e
000000f0: 70e9 443e 59e4 283e cda7 533e cc98 233e

outc.conv.weight f4 [2, 64, 1, 1]
-0.09613592 0.0886776 -0.14526138 0.2513694 -0.17203106 -0.12756075 0.1833394 0.10107528
0.18764286 0.26981995 -0.14066774 -0.11144236 0.26475304 0.2379841 0.24055403 0.28099093
0.11594354 0.08841753 0.03527934 -0.055080365 -0.13203974 -0.017651524 0.13817735 -0.16686694
-0.06262852 0.27163845 -0.18791047 -0.07555719 -0.05180011 -0.12907404 -0.18863957 0.23838967
-0.07695212 0.22313333 0.24246083 -0.05337197 0.13289845 0.31034866 -0.03167724 0.083589874
-0.10235449 0.26644778 -0.11187656 -0.16015059 0.2444425 0.3229801 -0.03436314 -0.12628342
-0.075383626 -0.15019144 0.16259396 0.08280016 0.29254827 0.2672092 -0.05910857 0.0881938
0.26623902 -0.117948405 0.2521996 0.15733895 0.2788917 0.30678585 0.271057 -0.17845689
0.15597734 -0.21569619 0.07892421 -0.27695876 0.08895457 0.13139896 -0.2010669 -0.26095518
-0.17581515 -0.23990424 0.06943757 0.13550454 -0.3290576 -0.14930104 -0.2669969 -0.22382803
-0.2989738 -0.31936443 0.1469603 0.1760988 0.04835156 0.15354921 -0.2616506 0.1232436
0.066197276 -0.316438 0.07354125 0.13952743 0.1528642 0.1606879 0.119096234 -0.11874769
0.15974347 -0.2642011 -0.24957347 0.15037626 -0.290181 -0.06908873 0.15627244 -0.28233862
0.06356173 -0.27172178 0.0873368 -0.0348989 -0.13361591 -0.1476019 0.14082934 0.112546116
0.08626348 0.05962898 -0.25447538 -0.2020766 -0.3018795 -0.16179958 0.17122677 -0.12725869
-0.3299274 0.039261382 -0.29906783 -0.32029012 -0.14028242 -0.17723349 -0.23784077 0.0438418
00000000: e9e2 c4bd 9a9c b53d 66bf 14be 7db3 803e
00000010: e928 30be 499f 02be 53bd 3b3e 8e00 cf3d
00000020: 7325 403e d725 8a3e 340b 10be e43b e4bd
00000030: b68d 873e 1bb2 733e cc53 763e 0bde 8f3e
00000040: cf73 ed3d 4014 b53d 1281 103d f39b 61bd
00000050: 6d35 07be ee99 90bc 5d7e 0d3e 2bdf 2abe
00000060: 6243 80bd 3214 8b3e 9a6b 40be babd 9abd
00000070: 5a2c 54bd fc2b 04be bb2a 41be 6c1c 743e
00000080: 1399 9dbd 107d 643e a747 783e 919c 5abd
00000090: 8816 083e 05e6 9e3e febf 01bd 2b31 ab3d
000000a0: 3b9f d1bd d86b 883e 8a1f e5bd 84fe 23be
000000b0: 224f 7a3e a65d a53e 5dc0 0cbd 7150 01be
000000c0: bb62 9abd c9cb 19be 087f 263e 2193 a93d
000000d0: e3c8 953e a5cf 883e d41b 72bd f39e b43d
000000e0: 7b50 883e ef8e f1bd 4e20 813e 761d 213e
000000f0: e5ca 8e3e 0913 9d3e fcc7 8a3e 67bd 36be
00000100: 86b8 1f3e 76df 5cbe 04a3 a13d 8acd 8dbe
00000110: d02d b63d 738d 063e 7be4 4dbe eb9b 85be
00000120: e308 34be 75a9 75be 4935 8e3d b4c1 0a3e
00000130: 3d7a a8be 5fe2 18be d1b3 88be 2d33 65be
00000140: 1813 99be bc83 a3be c37c 163e 3e53 343e
00000150: 490c 463d 013c 1d3e 11f7 85be 2467 fc3d
00000160: 7092 873d 2904 a2be cb9c 963d 47e0 0e3e
00000170: 6f88 1c3e 5e8b 243e bae8 f33d fd31 f3bd
00000180: cb93 233e 5e45 87be 3090 7fbe 3cfc 193e
00000190: 9b92 94be 647e 8dbd e205 203e b08e 90be
000001a0: a72c 823d 1e1f 8bbe a3dd b23d 26f2 0ebd
000001b0: 9cd2 08be f424 17be 9135 103e 947e e63d
000001c0: e8aa b03d 843d 743d 994a 82be 2bed 4ebe
000001d0: f38f 9abe caae 25be 1256 2f3e 1a50 02be
000001e0: 3fec a8be 8bd0 203d 6b1f 99be 11fd a3be
000001f0: 32a6 0fbe b27c 35be 888c 73be 7693 333d

outc.conv.bias f4 [2]
0.09054807 0.043002304
00000000: 4471 b93d 2f23 303d
