net/onnx/unet_simp_small.onnx (onnx, 600445 bytes, 8 tensors)

58 f4 [64, 3, 3, 3]
000000 d0 6c 14 c0 b1 1e 7b 3f f6 95 03 40 63 8c 64 3f
       -2.3191414 0.98093706 2.056028 0.89276713
000010 6f 8a 6e 3f a1 9c 1c 40 4f 2a 23 bf 2c 56 6c bf
       0.9317998 2.4470599 -0.6373643 -0.9231899
000020 48 b3 06 c0 9b d9 22 c0 6a b5 1a c0 4b 17 8d bf
       -2.1046925 -2.5445316 -2.4173226 -1.1022733
000030 94 d2 55 bf 36 e1 fd 3f 2d ab 03 40 e7 fb ac bf
       -0.8352444 1.9834354 2.0573227 -1.3514374
000040 1e d7 c4 3e 67 cd 12 3f 1a 85 cb 3f 17 3f d5 3f
       0.3844537 0.5734467 1.5899994 1.6659878
000050 42 26 0d 40 ea 4c de bf 4d ff 30 be 6d 93 13 c0
       2.20546 -1.7367222 -0.1728489 -2.3058732
000060 df 30 05 40 f6 29 d4 3d d0 a2 a7 bf d1 43 57 3e
       2.0811079 0.10359566 -1.3096561 0.21021964
000070 21 7d 91 3f 37 b1 1c bf c2 38 de bf 56 54 1d 3f
       1.1366311 -0.6120791 -1.7361071 0.6145681
000080 2c 79 9d bf 17 2b b0 3f de 74 6d be ca 16 a6 3f
       -1.2302604 1.376315 -0.23189113 1.2975705
000090 94 90 cf 3f 6c 1e d9 be 8c e7 80 3f 16 d0 c8 3e
       1.6215997 -0.42406023 1.0070662 0.39221257
0000a0 62 e7 f5 bd ca 0c 2b bf 4e bc 74 bf 3d b2 0b bf
       -0.120070234 -0.6681639 -0.9559983 -0.54568845
0000b0 8a 38 89 bf 13 0d a4 3f a3 00 9c 3f 9d 24 d5 be
       -1.0720379 1.281649 1.2187694 -0.41629496
0000c0 9b 8b 61 bf d9 ff 92 3f 18 57 9c be 3a c5 a2 be
       -0.88103646 1.1484329 -0.30535197 -0.31791097
0000d0 75 f9 4f bf 31 30 97 3f df 23 13 40 78 2a ca 3f
       -0.81240016 1.1811582 2.2990644 1.579421
0000e0 47 19 9e 3f ce 47 2e bf fc a6 32 be 84 39 fb bf
       1.2351464 -0.68078315 -0.17446512 -1.9626927
0000f0 ba 66 dc bf 6b 47 0c c0 42 55 ad 3f 69 f7 a9 bf
       -1.721885 -2.191859 1.3541644 -1.3278629
000100 dd 07 71 bf 1a 35 ba bf ea 99 15 3d 8d 77 14 40
       -0.94152623 -1.4547455 0.036523737 2.3197968
000110 31 31 47 be 27 b0 e9 be 10 d3 09 40 56 0a 1b 3f
       -0.19452359 -0.45642206 2.1535072 0.60562646
000120 9d 4e f8 bf f9 ee 00 40 c4 c8 9c bf 64 4f dc bf
       -1.9398991 2.0145857 -1.2248769 -1.7211728
000130 f6 77 d9 3e 59 ca 98 3f 50 e4 8c bf 2d 37 bc 3d
       0.42474335 1.1936752 -1.1007175 0.091902114
000140 7b ee f3 3f d3 71 cd 3d 43 20 89 be d1 8e ef 3d
       1.9057153 0.10031476 -0.26782426 0.11697162
000150 08 89 01 bf 75 ff 96 bf d9 24 8a 3e ef 01 95 bf
       -0.5059972 -1.1796709 0.26981238 -1.1641215
000160 e9 56 4a 3f 5b d6 cb bf 64 40 b8 3f 99 42 00 bf
       0.79038864 -1.5924791 1.439465 -0.5010162
000170 5e 85 6e 3f a0 b9 95 bf cb c1 ba 3f 22 df d5 3f
       0.9317225 -1.1697273 1.4590391 1.670872
000180 17 d3 56 be 32 bc c2 bf 3f e8 0e 3f dd 4a e7 bd
       -0.20978962 -1.5213683 0.5582313 -0.11293576
000190 4c 8b 88 be c4 e2 03 bf c6 72 00 3f b4 1f a4 be
       -0.26668775 -0.5151789 0.5017513 -0.32055438
0001a0 d8 ad a1 3f 20 b5 17 3f 01 bc af bf f5 08 a5 bf
       1.2631178 0.5926075 -1.3729249 -1.2893358
0001b0 ef 2c 8a bf ba e1 80 bf ec 5f be be 57 49 b6 bf
       -1.0794963 -1.0068886 -0.37182558 -1.4241132
0001c0 fe 03 70 3f 08 2d bb bf d8 c7 7d bf b4 c8 de 3f
       0.9375609 -1.4623117 -0.9913306 1.7405
0001d0 7c 76 e0 3d 52 a8 ae bc 81 8c 79 3f 59 64 13 be
       0.10960099 -0.021320496 0.97480017 -0.14393748
0001e0 d0 a4 43 bf 44 d5 75 3f 46 f7 2b 3f 12 03 cd 3e
       -0.7642336 0.9602854 0.67174184 0.40041405
0001f0 48 16 33 3d 00 2b 2a be 6c 55 64 bd 03 b3 31 bf
       0.04372242 -0.16617966 -0.055745527 -0.69413775
000200 1f 59 c2 be 63 79 d6 3f d7 aa 03 3e 40 bd 8c bf
       -0.3795862 1.6755794 0.12858139 -1.0995255
000210 14 e2 a0 bf f3 dc 4d 3f a4 ff 99 bf 44 0f ca be
       -1.2568994 0.80415267 -1.203114 -0.39464772
000220 4f ba 9f bd ee 60 78 bd ec 71 8a 3f 25 d0 30 3f
       -0.077992074 -0.060639314 1.0816016 0.69067603
000230 59 a6 b1 3b 97 dc d6 be 5f dc 3d bf e4 4d 65 bf
       0.0054214415 -0.41965172 -0.74164385 -0.89571977
000240 16 ea 9f 3f 25 80 fa bd b9 aa 82 3e 9e 6c 9c bd
       1.2493312 -0.12231473 0.25520876 -0.076379046
000250 a0 28 71 3e f3 65 22 bf 02 c0 21 3f 48 76 8c 3f
       0.23550653 -0.6343681 0.63183606 1.0973597
000260 8d ee 5e bf 8e 58 57 3f 35 9a 13 3f 93 ae 37 3f
       -0.8708275 0.841195 0.57657176 0.71750754
000270 90 2b 2d 3f ca 87 ca bd e4 c3 e6 3e 29 37 6b bf
       0.67644596 -0.09889181 0.45071328 -0.9188104
000280 ee 9c f1 bd 6d b1 49 3f a0 36 90 be 36 cf 65 bf
       -0.1179751 0.78786355 -0.28166676 -0.89769304
000290 90 b9 e8 3f da e2 d8 be 9a 28 84 3f 7b 66 e2 bf
       1.8181629 -0.42360574 1.0324891 -1.7687525
0002a0 1e 5f ce 3e 24 15 8a 3f b4 2e d1 bf 18 d0 8b 3f
       0.40306944 1.0787702 -1.6342378 1.092288
0002b0 4d ec 9a 3f f5 3c a0 3f 11 6c 91 3f ad f7 3c 3e
       1.2103363 1.2518603 1.1361104 0.18453856
0002c0 3f 43 ee bf c1 ef f3 bf 04 61 0a c0 f4 fd 4e 3e
       -1.8614272 -1.9057542 -2.1621714 0.20214063
0002d0 ac e2 a7 3e 77 d7 e0 bf 43 ab 7c 3f a6 92 f7 3f
       0.32790124 -1.7565755 0.98698825 1.9341629
0002e0 f8 18 8a bf 1a e7 d4 bf ea 1b 40 be bb ee d1 3f
       -1.078887 -1.6633027 -0.18760648 1.640098
0002f0 0e 4c 36 3f f5 c7 a8 3e ba c5 2a 3f bb d2 74 be
       0.712098 0.32965055 0.66707957 -0.23908512
000300 8d 3b 2d 3f 81 05 32 3f fc 87 ac be eb e5 21 bf
       0.6766899 0.6953965 -0.33697498 -0.6324145
000310 73 4b 4f bd e4 42 3b 3e 07 6a 00 bf 40 65 af be
       -0.050609063 0.18287235 -0.50161785 -0.34256935
000320 28 40 a8 be bf fc 6e 3f 5d a3 58 3f ab c4 86 be
       -0.32861447 0.9335441 0.8462427 -0.2632192
000330 b9 14 82 bf de 68 43 3f 9c d5 17 3f ba 59 0a 3f
       -1.0162574 0.7633189 0.5931032 0.5404316
000340 de 46 48 3e 4c 67 f6 3e 0b 2d c4 be 9c 01 5b 3f
       0.19558284 0.48125684 -0.38315615 0.8554933
000350 e1 99 09 bf 7a d4 66 3f bf ec 18 3f cb 81 a2 bd
       -0.53750426 0.90167964 0.59736246 -0.07934912
000360 ce 0e 7b 3e 4b 63 42 bf 1c 0d 18 bf ed 53 16 be
       0.24517366 -0.7593276 -0.59395003 -0.14680453
000370 23 00 8d be 0e 82 9f 3e 62 15 c0 be 08 28 dc 3d
       -0.27539167 0.3115391 -0.37516314 0.10749823
000380 66 4f 19 bf 1a 0b 96 3e 02 93 d8 be 73 69 3c 3e
       -0.5988678 0.29305345 -0.42299658 0.183996
000390 ef 2a 51 bf 3c c2 2b bf 56 4d 36 bf 7f 10 28 bf
       -0.81706136 -0.67093253 -0.71211755 -0.6565017
0003a0 d9 83 26 bf 68 f5 0c 3f 17 af 0e bf 2d 1f 0b 3f
       -0.65044934 0.5506196 -0.55735916 0.54344445
0003b0 57 1d 31 bf 7f 5f 6e 3e 27 a0 6d 3e 6b a7 5a be
       -0.69185394 0.23278616 0.23205625 -0.21352927
0003c0 7b 45 e4 be 28 08 fc 3e ad a4 34 3f df 0c b7 bb
       -0.4458426 0.49224973 0.70563775 -0.005586251
0003d0 e8 59 a1 3f 32 3b 96 3f 5b fe 25 3f 2a ef 2c bf
       1.2605562 1.1736815 0.6484124 -0.67552435
0003e0 69 ee 60 be 42 64 54 bf 87 6b b1 bf 19 50 b0 bf
       -0.21965946 -0.8296548 -1.386094 -1.3774444
0003f0 3e eb 67 3f e1 a8 05 3e 7b fd a2 bf a9 6b 6c 3c
       0.90593326 0.13052703 -1.2733606 0.014429965

59 f4 [64]
000000 4e f9 68 be 25 c0 ae bf dd a6 05 be 4b 1a bc 3f
       -0.22751352 -1.3652388 -0.13051935 1.4695524
000010 e1 52 15 40 62 2f 25 c0 5d be ff 3e 0b 98 44 c0
       2.3331835 -2.581017 0.49949923 -3.07178
000020 60 a0 47 40 13 be 1e bf 6c a8 29 3f c7 45 ea bf
       3.1191635 -0.6200878 0.66272616 -1.8302544
000030 bb 68 e1 bf d0 ae 99 3e a9 66 39 bf 32 d3 4f 3f
       -1.7610086 0.30016184 -0.7242227 0.81181633
000040 89 e3 08 c0 5f f2 73 3f 2a 07 0f bf 24 e4 32 c0
       -2.1388876 0.95291704 -0.55870306 -2.7951746
000050 ed 62 30 c0 2b 5e f3 bf 96 28 b0 bf 08 7c f0 3e
       -2.756038 -1.9013113 -1.3762386 0.46969628
000060 6a ba 3f c0 a2 2f 30 c0 84 6d c7 be 08 4e df bf
       -2.9957528 -2.7529073 -0.3895074 -1.7445688
000070 b9 e5 66 bf 21 ca 13 40 8a c7 2e c0 9d 43 82 3d
       -0.9019428 2.309212 -2.730929 0.063605525
000080 1d dc 78 3e 57 08 48 c0 b9 4d 0d c0 03 43 36 c0
       0.24302717 -3.125509 -2.2078688 -2.84784
000090 30 fb 28 40 60 cd c1 3e fd 74 49 be 09 fb 08 40
       2.6403313 0.37852 -0.19673534 2.140322
0000a0 93 39 64 bd 40 01 1c 40 5d cd 14 40 7e f0 d0 bf
       -0.05571897 2.4375763 2.3250344 -1.6323392
0000b0 21 22 46 c0 63 88 cc 3f 59 40 05 c0 90 fd 9d bf
       -3.095833 1.5979122 -2.0820525 -1.2343006
0000c0 9b 64 48 c0 d6 00 58 bf 0f 51 38 c0 6d 69 c0 bf
       -3.1311405 -0.84376276 -2.8799474 -1.5032173
0000d0 c8 f0 0a bf c9 90 28 40 c4 ff 5d 3f e5 0c d3 bf
       -0.54273653 2.633837 0.8671839 -1.648831
0000e0 5e 51 99 3f 70 7e 4b 40 0d 7e 47 40 e8 f3 2f c0
       1.1977956 3.1795921 3.1170685 -2.7492619
0000f0 2d 95 ec 3f 65 72 6c 3f 9d c6 57 3f 3e 92 3f 3f
       1.8483025 0.9236205 0.84287435 0.7483252

61 f4 [128, 64, 3, 3]
000000 df 65 70 3d ca f4 1f 3e 83 13 1c 3e 79 d1 d4 bd
       0.0586909 0.15620723 0.15241818 -0.10391516
000010 36 d0 ee 3d 0a 1c 90 3d e5 7b 8b bd 31 9f 8d 3d
       0.11660807 0.07036598 -0.068107404 0.06915129
000020 12 e4 07 bd b1 d0 8d 3c e3 da e6 3c e9 26 7f bd
       -0.03317649 0.017311426 0.028180545 -0.062292967
000030 55 23 c3 bc ed 4c 96 bd f0 27 91 bd 90 7e 99 3d
       -0.023820559 -0.07338891 -0.070876956 0.07494843
000040 63 94 d4 3c 6f bb 8f bd 2b e0 83 3b aa 48 33 3d
       0.025949663 -0.07018172 0.0040245256 0.04377047
000050 71 fc b6 bc 0f 35 66 3d 0b b1 32 3d a7 02 bb 3d
       -0.02233717 0.056202944 0.043625873 0.09131365
000060 fc 91 f8 3d 24 39 22 bd b9 28 eb 3c d4 1c 8b bd
       0.12137219 -0.039605275 0.028705942 -0.06792608
000070 49 66 f8 3a af 0d b7 bd 79 ee a5 3d a3 9d 85 bd
       0.0018951382 -0.08938157 0.08102126 -0.065242074
000080 13 f4 d5 3c 14 12 12 3d 70 c8 c2 bd ea bc 7e 3d
       0.02611736 0.035661772 -0.09510887 0.06219188
000090 a7 0f 74 bd 4e 0f e0 bd e8 1e 5d 3d 13 9a cb 3c
       -0.05958524 -0.10940419 0.053984553 0.024853742
0000a0 df 08 7d 3d 58 c2 5d bc 07 7e d4 bc 01 a2 fb 3a
       0.06177604 -0.013535105 -0.025939 0.0019198061
0000b0 31 1b 8d 3d eb 49 c0 bd 75 28 8e bd 5f 05 73 bd
       0.06889952 -0.09389099 -0.0694131 -0.059331294
0000c0 f0 d2 b6 bd 46 bd ab 3d 34 4f 96 bc 1e fa d5 bd
       -0.08926952 0.083857104 -0.018348314 -0.10448097
0000d0 dc b9 30 bd 33 d0 9e bd 9e 6c e1 3d 51 a9 3a 3d
       -0.043146 -0.077545546 0.11007045 0.04557163
0000e0 1b da 2f 3d 30 20 c7 3c 47 22 fa bb 7f df 6c 3d
       0.04293261 0.02430734 -0.0076334807 0.05783033
0000f0 60 33 1c bd 4c b3 e3 bd c8 67 4d bc c3 02 0e 3d
       -0.038134933 -0.111181825 -0.01253695 0.034670603
000100 6a fc 81 3d 69 df 43 3d 8c 6e cf 3d 58 51 21 3d
       0.06346972 0.047820482 0.10128507 0.039384216
000110 ac 55 a5 bc 8d de 25 3c 6b 97 f5 3c 21 41 01 bc
       -0.020182453 0.010123861 0.029979428 -0.007889063
000120 b6 97 f1 bb ad e4 16 bc 1f 9b 53 3d 8e 28 97 3d
       -0.0073728217 -0.009209794 0.051661607 0.07380782
000130 b0 1a c5 3a ec 93 3e bc bd 18 1f 3c 80 cd c4 3d
       0.0015037861 -0.011631947 0.009710488 0.096095085
000140 4c 21 84 3d ce b8 61 bd e0 8a 09 bd 5a 74 0c bc
       0.064516634 -0.055107884 -0.033579707 -0.008572662
000150 5a 0f b7 bd 43 4e b3 3d 51 eb c4 bd 84 56 8a 3d
       -0.08938475 0.087551616 -0.096151955 0.06754783
000160 51 1a 52 bc 1c fb 0f be f3 f7 af 3c 7f 26 01 3c
       -0.012823657 -0.14060634 0.021480536 0.007882713
000170 af 4c 61 bd bd 48 bb bd 8a b4 81 bd 7f 50 a8 bd
       -0.05500477 -0.09144733 -0.06333263 -0.082184784
000180 11 87 bf 3d 60 53 ca 3d 88 31 5c 3d f4 20 9e bd
       0.09351934 0.09879184 0.053758174 -0.07721129
000190 6a df 32 bd fd c9 ba 3d 0c ee 9e 3d 4a a5 3e 3d
       -0.043670096 0.091205575 0.077602476 0.04654435
0001a0 f7 6d 90 bd a7 22 c7 bd 00 0a 50 bc dc 8e 97 bd
       -0.07052224 -0.09723406 -0.012697697 -0.07400295
0001b0 71 83 83 bc 3e 98 17 3d b0 5a 82 bd 42 b5 c8 bc
       -0.016053887 0.037010424 -0.063649535 -0.024500493
0001c0 0d c9 71 bd 40 89 82 3d 6e bb 21 3c 08 bb 05 3e
       -0.059029628 0.063738346 0.009871347 0.13059628
0001d0 17 60 90 bd 51 21 54 bd 21 0a b7 3d 11 ac 64 3d
       -0.07049578 -0.051789586 0.08937479 0.055828158
0001e0 41 dd 49 3b 84 27 e4 bd 95 30 92 3d ec c4 e3 bb
       0.0030802044 -0.111403495 0.071381725 -0.006950965
0001f0 67 b1 40 bd 71 36 2b 3d a3 55 06 3e 91 4e fc 3d
       -0.047044184 0.041799966 0.13118605 0.12319673
000200 b3 a7 07 3d 92 c5 bd 3d 9b 55 01 3e 45 aa 36 3c
       0.033118915 0.09266199 0.12630312 0.011148994
000210 07 50 8b 3d 46 63 dd 3b cd 54 97 bc 77 dc d7 bc
       0.068023734 0.006756219 -0.018473053 -0.026350243
000220 6d ba b3 3d 43 bf 79 3b be 22 85 3d 51 8d b7 3d
       0.08775792 0.0038108386 0.06500767 0.08962501
000230 6a 28 1f bd 25 32 95 3d 74 b1 43 3d c4 85 83 bc
       -0.0388569 0.07284955 0.047776654 -0.016054995
000240 27 f4 95 bd 61 02 b1 bd 1b 5a 8e bd e0 9e db 3d
       -0.07321959 -0.08643032 -0.0695078 0.107236624
000250 6a ad 2f bc 7f bb 7b bc 48 4c 7c 3c f1 34 8c bd
       -0.0107224975 -0.015364527 0.015399046 -0.06846035
000260 68 0c a8 3d cd 93 bb bd 69 b8 9e bd d2 f7 af 3d
       0.08205491 -0.0915905 -0.07750017 0.0859219
000270 66 dc 84 3d 3f 3b 8a bd 7f af 91 3c 91 c9 1b bb
       0.0648735 -0.067495815 0.017783878 -0.0023771266
000280 31 b6 7f 3d 69 33 6d 3d eb 29 a7 3d 41 81 b3 3d
       0.06242961 0.057910357 0.08162292 0.087648876
000290 b9 31 a0 bd bb 21 d5 bd 74 82 b2 bd 26 43 0f bd
       -0.07821984 -0.10406824 -0.08716288 -0.034976147
0002a0 15 3c 95 bd c9 78 8c 3c 4e 77 6c bd 18 1a c1 bc
       -0.0728685 0.017147439 -0.057730965 -0.023572013
0002b0 b0 d7 14 bd c5 02 b7 bd 15 81 60 3c 89 0e 83 bd
       -0.036338508 -0.08936075 0.013702651 -0.06399257
0002c0 5c 0f fd 3c 2e 34 c2 bd 79 8b 4c 3c 37 8e e2 3c
       0.030891113 -0.09482609 0.012484425 0.027655704
0002d0 1f b3 b8 3b 0f eb 8c 3d e1 a6 de 3c f1 c2 92 bb
       0.0056365873 0.06880771 0.027179183 -0.004478805
0002e0 90 29 b8 3d 38 d1 82 bc 6a 0b eb 3c 8a 91 e0 3b
       0.089923024 -0.015968904 0.028691966 0.006853287
0002f0 4b 62 d5 bd b4 16 3d bd f8 98 c9 3d a8 99 7a bc
       -0.104191385 -0.04616423 0.098436296 -0.015295424
000300 aa 7a 05 3d b9 15 a1 bd 0f 6a 3b 3a 3d 4d 8d 3d
       0.032587685 -0.078654714 0.0007149288 0.06899498
000310 6d 8a a8 3d e7 99 f8 bc c5 ef b8 3c 69 00 f7 bd
       0.082295276 -0.030346824 0.022575269 -0.12060625
000320 d0 e5 83 3c 0c 4e e4 3c 00 88 15 3d 17 af a8 bd
       0.016100794 0.027869247 0.036506653 -0.08236521
000330 dc ad fd 3d ed 28 a9 3d 99 0c db 3d 13 2f d4 3d
       0.12386677 0.08259759 0.10695762 0.10360541
000340 75 9e e5 bc 33 5f af bd 28 18 8e 3c 75 2d fd 3d
       -0.02802966 -0.0856308 0.017345503 0.12362186
000350 08 8a b1 3c d9 8a fa 3d 3c 44 58 bd b1 43 68 3d
       0.021672264 0.12233514 -0.05279945 0.05670518
000360 12 6c 1a 3d 9f dc e2 bd 1a f1 02 be 7b a6 ab bd
       0.03770072 -0.110772364 -0.12787285 -0.08381363
000370 2a bb d8 bc 0d b6 9d 3d ea 6b a5 3b a7 21 bd 3d
       -0.026456434 0.07700739 0.0050482647 0.09234934
000380 96 94 3b 3d 15 82 79 3c bd 60 04 3d df 15 44 3d
       0.045796 0.015228768 0.03231882 0.04787242
000390 bb de d1 3d 36 66 7e bc 46 a5 48 bc 21 31 1f bd
       0.102475606 -0.015527299 -0.0122464355 -0.038865212
0003a0 dc 83 a4 bb 02 75 ef 3c e7 8c 84 3d 9a 5a ce 3d
       -0.0050206017 0.029230598 0.064721875 0.100758746
0003b0 d7 79 92 bb 3e bd 34 3c d2 a6 63 3d c8 b6 c9 bd
       -0.004470091 0.011031447 0.055579014 -0.09849316
0003c0 46 0b 9e 3d f7 2e ff 3d f9 1c 46 3c c0 cb d9 bd
       0.07716994 0.1246013 0.012091869 -0.10634565
0003d0 c2 22 59 3d e3 99 a1 3d 1a c5 94 3d ce b2 88 bd
       0.053011663 0.0789068 0.07264157 -0.06674729
0003e0 ef 5c e1 ba f3 21 0e bc 9c bf 71 bd 13 6e c2 bc
       -0.0017193834 -0.008675086 -0.059020624 -0.023734128
0003f0 af f4 e7 bd a3 4a b3 3d 52 70 8d 3d db 70 d2 3c
       -0.113259666 0.0875447 0.06906189 0.02568858

62 f4 [128]
000000 14 ff 5b bf 8c 81 0e be c0 2b 47 bf ea 9e 14 3e
       -0.85936093 -0.13916606 -0.7780113 0.14513746
000010 6a 9f 8c 3f cf 73 9e bf 75 08 1d 3f ee 8f 38 bf
       1.0986149 -1.2379092 0.6134103 -0.7209462
000020 e9 30 c0 be cb 82 ed 3e 4b 73 0b bf a9 a9 e7 bf
       -0.37537315 0.4638885 -0.544728 -1.8098651
000030 16 31 a1 be 32 a6 b6 be 0f d7 e1 3e 14 7e 27 3f
       -0.31482762 -0.35673672 0.4410939 0.65426755
000040 2a 11 75 bd f3 48 89 3f a1 08 54 bf bc c3 80 3f
       -0.059830822 1.0725387 -0.82825667 1.0059733
000050 5a b0 64 3f 1c 98 4d 3f 7c 7d 30 3f bd fb 67 3e
       0.8933159 0.80310225 0.68941474 0.22654624
000060 35 7a 2a 3e 69 57 c0 bd e4 39 36 3f da 5d ae bf
       0.16648181 -0.09391672 0.71182084 -1.3622391
000070 01 03 86 be 2e 7a 58 3e b4 03 52 bf 93 05 92 bf
       -0.26174167 0.21140358 -0.820369 -1.1407951
000080 bb c1 c7 3d 21 8c 88 bf 2d 0c 1d bf 60 7e 76 bf
       0.09753748 -1.0667764 -0.61346704 -0.9628658
000090 8b 58 86 3f bc 4d 20 3e bc 35 56 3f 5e c2 4d bf
       1.0495771 0.15654653 0.8367574 -0.80374706
0000a0 81 d2 12 3f a5 cf d3 be a1 62 a7 bf 5d 0d 8c 3e
       0.57352453 -0.41369358 -1.3076974 0.27353945
0000b0 78 81 19 be 56 47 f2 be a2 cd 04 bf 29 35 a3 bd
       -0.14990795 -0.4732005 -0.5187627 -0.07969124
0000c0 6a 2f 51 3f 1c e8 47 bf 36 35 a7 3f 54 83 e9 3e
       0.81712973 -0.78088546 1.3063114 0.45608008
0000d0 13 8d b4 3d a7 0a 9a 3e dc 48 87 bf e9 0d ab be
       0.0881597 0.30086252 -1.056911 -0.3340905
0000e0 9b 0d c9 bf e8 8c f0 be 7d 43 b2 be 5d 05 b8 3f
       -1.5707277 -0.46982503 -0.34817114 1.4376637
0000f0 67 5f 5a 3f 64 12 0e 3f c9 c0 2b 3f 53 ec 1d be
       0.8530182 0.5549681 0.6709104 -0.15422182
000100 9b 7b bf 3e e0 ee 60 3f 40 e2 79 be f3 34 a9 3f
       0.3739899 0.87864494 -0.24402714 1.3219284
000110 62 c8 66 be 20 99 3f bf e6 14 63 3f 06 a0 be 3f
       -0.22537377 -0.74843025 0.88703763 1.4892585
000120 43 10 58 3d 71 51 86 be 96 b1 18 3f d1 4e 05 40
       0.052749883 -0.2623401 0.59645975 2.0829356
000130 4a f1 1e bd cd 8f 57 bf 96 47 01 3e 84 2f 80 3d
       -0.03880433 -0.842038 0.12624964 0.06259063
000140 84 70 4d bf be b8 54 be 2f 19 48 3f fa a8 6a bd
       -0.8024981 -0.20773599 0.7816343 -0.057290055
000150 67 cf 21 bf ce dd 27 be 37 91 83 3f f9 62 94 bf
       -0.63207096 -0.16393206 1.0278691 -1.1592704
000160 38 b9 49 3f 67 59 9c 3f bd 08 4c 3f d3 86 55 3f
       0.78798246 1.2214783 0.79700834 0.8340885
000170 ea a8 0a 3f 9b 1e 76 be 93 6c 39 3f 48 66 87 bd
       0.5416399 -0.24035113 0.72431296 -0.066113055
000180 03 d6 d5 3f 89 1c 86 be 4c 6d 62 3f 3f 82 10 bf
       1.6705936 -0.26193646 0.88448024 -0.5644874
000190 a8 d0 c8 bf 36 7f 0e 40 5b d3 a8 3f dd fb 89 3f
       -1.5688677 2.2265143 1.31895 1.0779988
0001a0 bd e6 ff be 22 17 7f 3f 02 f8 12 bf ca 88 4d be
       -0.49980727 0.9964467 -0.5740968 -0.20071712
0001b0 a0 d4 13 be 23 eb 26 3d ea 29 72 3f 8c 6d 9a 3f
       -0.14436579 0.040751588 0.94595206 1.2064681
0001c0 71 49 66 3f e6 87 27 3f af 70 7a 3f b8 24 0e bf
       0.8995581 0.6544174 0.9782819 -0.5552478
0001d0 7b 0b 91 bf c0 8e 9b 3f a0 d4 98 be 80 6c 5f 3f
       -1.1331629 1.2152939 -0.2984972 0.8727493
0001e0 12 d6 3b 3f 1d e5 f4 be 9a c4 3b 3e b6 e5 24 be
       0.7337352 -0.4783105 0.18336716 -0.16103253
0001f0 17 01 e3 3e 29 30 92 3e 12 0f 55 bd 1e de 82 3f
       0.4433677 0.28552368 -0.052016325 1.0224035

64 f4 [64, 128, 3, 3]
000000 77 d5 63 bd f3 b6 f7 3d 66 64 77 bc 5f 3a 03 3d
       -0.055623498 0.12095442 -0.01509962 0.03203809
000010 1d 7e 46 3c 83 31 df 3c 57 4c bc 3b 68 81 2b 3d
       0.012115029 0.027245289 0.005746405 0.04187146
000020 da cf ee 3c d9 fe 87 bd c6 82 e1 ba c4 ed 87 bd
       0.029151846 -0.06640405 -0.0017205111 -0.06637147
000030 44 53 d1 3c 7a ec 95 bd da 8a 12 3d 10 9f 98 3c
       0.0255524 -0.07320495 0.03577695 0.018630534
000040 b9 9d 2b 3d 2c da 3d 3d 93 7d 8e 39 58 2b 85 3d
       0.041898463 0.046350643 0.0002717791 0.06502408
000050 7a 61 9f bb f5 25 2c bc 07 fb 3a bd 59 77 e7 3c
       -0.004863915 -0.010507097 -0.045649555 0.028255152
000060 89 65 25 3d 21 9d 39 3d 22 6d 92 3c da 75 d2 bb
       0.040380035 0.045315865 0.017874304 -0.0064227404
000070 ac 66 3a bd 36 cf 0a bd 0f 9b 09 bd 9f 82 41 3b
       -0.04550807 -0.033889018 -0.03359514 0.002952732
000080 c2 dd 56 bd aa 08 66 bc a5 3d 90 bd 8e 91 eb bd
       -0.05245758 -0.014040152 -0.07043008 -0.11502372
000090 9c 7c c0 ba b8 64 81 bc 78 0b cb 3c fb 65 4f 3c
       -0.0014685574 -0.015795097 0.024785742 0.012658591
0000a0 c6 14 c7 bd 78 14 f5 3c fd 49 39 bd 68 9c 87 3d
       -0.09720759 0.029916987 -0.045236576 0.06621629
0000b0 2c 22 97 3d fe 04 5e bd 4c f5 97 bd fe 33 95 3d
       0.07379565 -0.05420398 -0.074198335 0.07285307
0000c0 3e e7 ac bd 03 99 8e bd 70 7e 16 3d 2d af f2 bd
       -0.084425434 -0.069627784 0.036741674 -0.118498184
0000d0 04 cc 2b bd df 19 8c bd 7d 04 5b bc 72 9b 5a bd
       -0.04194261 -0.06840872 -0.013367769 -0.0533709
0000e0 90 56 a6 3d 0a d2 4d 3d cb 38 15 3d 6b 2c 36 bb
       0.08121979 0.050249137 0.036431115 -0.0027797471
0000f0 43 72 4f bd 70 3f f0 bc f9 85 8a 3b 14 80 b8 3d
       -0.050646078 -0.029327124 0.0042273966 0.09008804
000100 36 48 bb 3c 44 a8 30 bd 2f a2 5e bd 5a 4d 2d bd
       0.022861581 -0.04312922 -0.05435389 -0.042310096
000110 be b6 9e 3d a7 2e 02 be ac b0 f7 3c 23 5a 78 bd
       0.07749699 -0.12713109 0.03023561 -0.060632836
000120 7e d4 6a bc 7a 3a b5 b9 43 eb 82 3d 65 34 24 3d
       -0.014332889 -0.0003456658 0.06392529 0.04008903
000130 0d 01 66 3a ec f5 de bd b5 32 a0 3d 2d e6 d9 ba
       0.000877396 -0.108867496 0.078221716 -0.0016624384
000140 c4 ab 0a bd 51 91 b0 bd a6 59 ad bd 72 ec 7c 3d
       -0.033855215 -0.08621467 -0.08464365 0.06174893
000150 48 2e c4 bc fa bf a0 bd 43 8b 2d 3d 3f b5 d3 3d
       -0.02394785 -0.078491166 0.04236914 0.10337304
000160 84 28 73 bc cd 76 79 3d 8a b5 8e bb 88 0d 11 3c
       -0.014841203 0.060904313 -0.0043551372 0.008853324
000170 76 9f 63 bd 7f 35 2b 3d 9a de 43 bd 5c ee 37 bd
       -0.055571996 0.041799065 -0.04781971 -0.04490505
000180 67 01 4a bd 98 5d 11 3d 3e b6 be 3d 37 64 97 3d
       -0.049317744 0.03548965 0.09312104 0.07392161
000190 f4 ad e9 bd bc d4 c6 bd 93 9a ac 3c 1e 22 e4 bc
       -0.11410132 -0.097085446 0.0210698 -0.0278483
0001a0 ea 2f b3 bd 3a de e6 bb bf 9f 97 bd c7 33 9e bd
       -0.08749373 -0.0070455344 -0.07403516 -0.077247195
0001b0 b6 93 a5 3c 83 bd c4 bc 9c eb b0 ba ff 3d 9b 3d
       0.020212036 -0.024016147 -0.0013497951 0.07580184
0001c0 38 1b b1 bb fa 36 c9 3d e3 d5 ad 3d 58 3c 43 bd
       -0.005404856 0.09824939 0.08488061 -0.04766497
0001d0 ee 5c 8d 3d d2 11 bf 3d f7 87 bd 3d 76 8e a9 3d
       0.069024906 0.09329571 0.09254449 0.082791254
0001e0 4d 90 a6 3d bf aa be 3c 55 a7 8b bd 66 93 86 bd
       0.08132992 0.023274777 -0.068190254 -0.06571083
0001f0 51 1a 4f 3d eb 95 a7 bd fd e4 bc 3c e8 1a 75 bc
       0.050562207 -0.081828915 0.023058409 -0.014960028
000200 b4 a6 4d 3d dc dd e4 3c fb 5d 51 3d 70 fd 0e bd
       0.05020781 0.027937822 0.051115017 -0.034909666
000210 b9 37 47 bd 68 95 c9 3c 30 68 3a bd e2 70 ee 3c
       -0.048637126 0.024607375 -0.045509517 0.029106561
000220 3a d8 80 3d 29 04 10 bc 26 8b fb bb 4b 6f 12 3b
       0.06291242 -0.008790054 -0.0076765 0.0022344168
000230 30 7f 72 3d 78 6f fc 3b 4f be 86 bb 1e 71 f6 bc
       0.059203327 0.007703718 -0.004112042 -0.030083235
000240 17 c1 a7 3c 67 b3 92 bd a5 97 f5 3d cd 6e 2e bc
       0.020477815 -0.071631245 0.119918145 -0.010646534
000250 a6 39 b1 bb 99 54 e3 b9 90 ec c3 3d 39 ec d3 bc
       -0.0054084836 -0.00043359844 0.09566605 -0.025869476
000260 43 4e 4f 3d c4 f7 08 3d ac 32 2d bd 27 04 0c 3c
       0.050611746 0.033439413 -0.042284653 0.008545912
000270 fe 33 60 bd ff 12 29 3c 94 18 67 3d d7 33 0c bd
       -0.054737084 0.01031947 0.056419924 -0.034229126
000280 ad 27 81 bd cd 88 a3 bd d1 34 6a bd 99 dd 59 bd
       -0.06306396 -0.07985077 -0.057179276 -0.053189848
000290 bc 8f 63 3b eb 91 47 3b 42 fd 1d 3c 9b bc b8 3c
       0.0034723124 0.0030451964 0.009642901 0.022550872
0002a0 5b 04 e6 3c 4e d4 e1 bb 23 a9 ce bc d4 3c 9c 3b
       0.028078249 -0.006891764 -0.025227135 0.0047679935
0002b0 6b b5 5f bc 81 6c d6 bc af 33 04 bd 46 01 90 3c
       -0.013654093 -0.026174786 -0.03227585 0.017578732
0002c0 de 1a 0e bc a0 20 75 bc 30 a1 65 3d 02 a5 33 be
       -0.008673398 -0.014961392 0.056061924 -0.17543414
0002d0 71 c6 ba bd 00 17 67 3c a9 08 39 bd 90 89 22 3d
       -0.09119881 0.014104605 -0.045174275 0.03968197
0002e0 02 80 ca 3d 73 d5 62 bd 8c 32 f7 bc 40 b8 b0 bd
       0.09887697 -0.055379342 -0.03017547 -0.08628893
0002f0 c4 fa 11 be 63 57 c8 bd 39 99 c8 bd df 4f f6 bc
       -0.14255816 -0.09782293 -0.0979485 -0.030067382
000300 41 b6 bf 3c 2d 76 c9 bb d2 ed 65 ba 06 f7 10 3d
       0.023402335 -0.006148121 -0.0008771095 0.03539183
000310 68 5f a6 3c d4 7e c4 3d 85 83 02 3d d5 6d 86 bd
       0.020309165 0.09594503 0.031863708 -0.065639175
000320 f5 c0 38 bd fb 62 8a 3d c8 bc 7c bc 1d 89 a3 bd
       -0.045105893 0.0675716 -0.015425868 -0.07985137
000330 f7 9f 12 3d 1c b1 30 bb d9 2b 93 bd 40 60 7c 3c
       0.035797086 -0.0026961034 -0.07186098 0.015403807
000340 b6 b9 a2 3d 0d 55 bd bb 32 d2 d7 3c 88 3e e5 3b
       0.07945578 -0.005777961 0.026345346 0.0069959797
000350 47 41 8c bc 6e ab 32 bd 12 c6 83 3c f7 b3 80 bd
       -0.01712097 -0.04362052 0.016085658 -0.062843256
000360 93 13 31 3d e7 cf 25 bc 16 0e cb 3c 7d ab d3 3d
       0.043231558 -0.010120369 0.02478699 0.10335443
000370 ec 8e 93 bd fe b8 86 3d be ca 39 3d c1 ec 92 3b
       -0.072049946 0.06578253 0.045359366 0.0044837897
000380 a1 ad 92 bd aa 6f 8f bd fe 93 5f bd dc ff f8 bd
       -0.07162023 -0.0700372 -0.054584496 -0.12158176
000390 ba ac bb bc f4 ff 31 3c e8 b5 b1 bd e2 6f d7 3c
       -0.02290951 0.010864247 -0.08677274 0.026298467
0003a0 29 73 b8 bb 7b 76 98 3a 01 68 04 3d f2 f2 61 bd
       -0.0056289625 0.001163199 0.03232575 -0.05516333
0003b0 e6 1e 82 3b 1a d8 89 3d c8 21 37 3d d1 b8 84 3d
       0.0039709685 0.06730671 0.04470995 0.064805634
0003c0 95 1f dd bb 66 d0 34 bd 73 19 1c bc 71 da f1 3c
       -0.0067481496 -0.044144057 -0.009527552 0.029523106
0003d0 1b 24 28 bd f6 cf a3 3b 26 dd 58 3d bf 42 ad bd
       -0.041050058 0.004999156 0.05294528 -0.084599964
0003e0 7c 27 2f 3d 61 b7 1e bd a7 8f 46 3d 53 8b 61 bd
       0.042762265 -0.038749103 0.04847684 -0.05506451
0003f0 0b d4 dc bd b3 ec bf 3d 9f f9 6d 3c aa 2b 9c bc
       -0.107826315 0.09371319 0.014524846 -0.01906379

65 f4 [64]
000000 d2 0f 20 3f 43 5b f3 3f cf 60 35 40 95 bd c6 bd
       0.6252414 1.9012226 2.8340337 -0.09704129
000010 fb e8 82 3f 51 08 6f bf dc 2c b0 bc 54 24 88 3f
       1.022735 -0.93372065 -0.021505766 1.0636086
000020 6f 44 eb 3f 07 50 4b 3e 69 d2 e4 be 32 27 f2 be
       1.8380259 0.19854747 -0.4469178 -0.4729553
000030 33 f5 d3 3f 70 7e 0a 40 2b ed d1 3f 04 f5 7c bf
       1.6559204 2.1639671 1.6400503 -0.98811364
000040 5d 03 ff be ab 94 01 40 9c 2a 73 be bb d7 8f bf
       -0.49807253 2.024699 -0.23746723 -1.1237711
000050 e7 a5 84 3f 0e b3 bf 3f 79 5b b3 3f 51 b6 04 bf
       1.0363129 1.4976518 1.401229 -0.5184069
000060 41 52 46 3e 00 cb a9 3f 1d 2e a8 be 69 cb 0c 40
       0.19367315 1.3265076 -0.32847682 2.1999152
000070 3f 72 5b bf 6c 8f ed bd 90 04 bd 3f 9f a8 98 bf
       -0.857212 -0.11599621 1.4767017 -1.1926459
000080 a6 96 8e 3f 17 8f 04 3e 4d a3 26 bd 01 55 30 bf
       1.1139724 0.1294521 -0.04068308 -0.68879706
000090 9f f1 1f 40 9e b7 cc be e4 de b9 3e 1a e6 9d 3f
       2.4991224 -0.3998384 0.36302865 1.2335846
0000a0 86 1b 81 3f ea 9b a1 be a5 cc 48 3e fe e5 39 be
       1.0086524 -0.31564265 0.19609316 -0.18154141
0000b0 c9 62 a8 3f 5b d1 39 3e 31 1d f3 be ea 07 55 3f
       1.3155147 0.18146269 -0.4748321 0.832152
0000c0 75 96 c1 bf 86 8c 97 3f 6d 1a 9c be e1 5c 89 3f
       -1.5124041 1.1839759 -0.3048891 1.0731469
0000d0 d7 14 ad be d9 35 ef bf 85 d0 84 3f 88 36 8e bf
       -0.33804962 -1.8688308 1.0376135 -1.1110392
0000e0 9d 88 a5 3d 2a 81 c1 3e b7 c8 b0 3f 86 f0 24 be
       0.080826975 0.37793857 1.3811253 -0.16107377
0000f0 43 7e 3a 3f 90 26 64 3f 8e eb a1 be c9 99 5e 3e
       0.7284891 0.8912134 -0.31625026 0.21738352

outc.conv.bias f4 [2]
000000 01 91 00 3e ca 3a e1 bd
       0.12555315 -0.10997541

outc.conv.weight f4 [2, 64, 1, 1]
000000 ac e8 51 bd ad b6 e7 bd d8 42 83 bd b4 7b 25 3d
       -0.051247284 -0.113141395 -0.06409234 0.040401176
000010 2e a6 0e 3d 45 f4 5a 3e d0 d9 89 3e 96 c5 62 3e
       0.03482645 0.21382244 0.2692399 0.22145686
000020 0d 5d cf bd de bd 1b bd 29 d9 de bd 96 34 5f 3e
       -0.1012517 -0.03802287 -0.10881264 0.21797404
000030 65 92 aa bd e0 2f d9 bd 7e ca aa bc 88 89 4d 3e
       -0.08328704 -0.106048346 -0.020848509 0.20071995
000040 08 d9 06 3e 45 97 e8 bd 49 e7 7a 3e 4b 10 85 3e
       0.13168728 -0.113569774 0.24502291 0.25988993
000050 6f ed 90 3e 1b c9 00 be e6 28 36 be aa 20 81 3e
       0.28306147 -0.12576716 -0.17789039 0.25220233
000060 75 88 46 3e ca 89 26 3e d3 1f 54 3e 0d da 1b be
       0.19387992 0.162635 0.20715265 -0.15219899
000070 3d 50 86 3e 51 f2 ff bd 27 95 da bc b2 2e 56 3d
       0.26233092 -0.1249739 -0.02668245 0.052290626
000080 8b e9 1f 3e d7 fd 08 3e 76 ff 69 bd 0f 27 5d 3d
       0.15616433 0.13378082 -0.057128392 0.053992327
000090 52 a3 29 be dd cf 08 be b9 0f 61 3e e8 fa 29 be
       -0.16566208 -0.13360544 0.21978654 -0.1659962
0000a0 1f 3f 10 3d 42 b8 15 bc c6 3d 7a 3e d1 c3 23 3e
       0.035216447 -0.009138169 0.24437627 0.15992667
0000b0 55 8f b8 bd 8e ee 22 3e d2 f5 58 3e 39 c3 7a 3e
       -0.090117134 0.15911314 0.21187523 0.24488534
0000c0 e3 27 09 3e 37 24 c1 bd b9 03 45 3e 76 b4 13 3e
       0.13394122 -0.094307356 0.19239701 0.14424309
0000d0 e4 6c 35 3e a9 75 23 be 54 cc 32 be 40 4c 7b 3e
       0.1771732 -0.15962853 -0.17460757 0.24540806
0000e0 ce 8f 0c be 42 af f6 3d e6 d0 f5 bc 06 2b d9 bd
       -0.13726732 0.120451465 -0.030006837 -0.10603909
0000f0 9a 7c 74 3e 5a ae 32 3e 37 93 45 3e c5 08 65 3e
       0.23875657 0.17449322 0.1929444 0.22366627
000100 95 1a fd 3d bb 00 fe 3d 39 ea 0c 3e 85 30 6d be
       0.12358586 0.12402483 0.13761224 -0.2316304
000110 7a 83 0b 3e 7a 2e 85 be 48 5a 46 be 27 03 5c be
       0.13624373 -0.2601202 -0.19370377 -0.21485578
000120 58 c0 3f 3d 83 66 af 3d e2 ef 12 3e 4a 21 99 bd
       0.046814293 0.085644744 0.1434932 -0.074770525
000130 61 2e ab 3d ae 6c 2b 3e 58 7f 23 3e 5f 5f 84 be
       0.083584554 0.16740677 0.15966547 -0.25854012
000140 9c 79 84 be 63 43 09 3e 88 63 5c be ba b9 94 be
       -0.2587403 0.13404612 -0.21522343 -0.29047948
000150 17 dd 49 be c0 d7 ea 3b 2e a7 db 3d 2d 3b 18 be
       -0.19713245 0.0071668327 0.10725246 -0.14866324
000160 70 08 2a be 89 27 e8 bd 2d 1e 32 be e4 f6 30 3e
       -0.16604781 -0.11335666 -0.17394324 0.17281681
000170 ed 7f 9c bd a9 df ab 3d f2 8e 1a 3e d5 c6 7b be
       -0.076415874 0.08392269 0.15093592 -0.24587567
000180 1f 0c 1b be 10 57 51 be f7 8a 1e 3e 35 a8 80 be
       -0.15141343 -0.20443368 0.15482698 -0.25128332
000190 25 eb b3 bc 59 04 2f 3c 4c 92 64 be f2 31 37 3e
       -0.021962712 0.010682189 -0.22321433 0.17890146
0001a0 ce 3c 83 be ef 55 0f 3e 6e e0 da bd ed f9 14 be
       -0.25632328 0.13997625 -0.10687338 -0.14548464
0001b0 93 b8 aa 3c ac 6e 5d be 38 4c 6d be 40 97 41 be
       0.020839965 -0.21624249 -0.23173606 -0.18905354
0001c0 d6 95 86 be 41 a6 28 3e 73 9c 4e be e5 87 2c be
       -0.2628619 0.16469671 -0.20176868 -0.16848715
0001d0 2e 22 93 be ed 03 a4 3d 91 5a ec bc 89 b1 32 be
       -0.28737015 0.08008561 -0.02885178 -0.17450537
0001e0 e7 e4 2d 3c fb 15 0f be 4d 59 03 3e e6 d1 b8 3d
       0.010613657 -0.13973229 0.12827034 0.0902441
0001f0 bd 70 2a be 16 89 2c be a7 74 6e be 24 40 06 be
       -0.16644569 -0.16849169 -0.23286687 -0.13110405
