net/onnx/unet_simp_small.onnx (onnx, 600186 bytes, 8 tensors)

outc.conv.weight f4 [2, 64, 1, 1]
0	0xbdc4e2e9	-0.09613592
1	0x3db59c9a	0.0886776
2	0xbe14bf66	-0.14526138
3	0x3e80b37d	0.2513694
4	0xbe3028e9	-0.17203106
5	0xbe029f49	-0.12756075
6	0x3e3bbd53	0.1833394
7	0x3dcf008e	0.10107528
8	0x3e402573	0.18764286
9	0x3e8a25d7	0.26981995
10	0xbe100b34	-0.14066774
11	0xbde43be4	-0.11144236
12	0x3e878db6	0.26475304
13	0x3e73b21b	0.2379841
14	0x3e7653cc	0.24055403
15	0x3e8fde0b	0.28099093
16	0x3ded73cf	0.11594354
17	0x3db51440	0.08841753
18	0x3d108112	0.03527934
19	0xbd619bf3	-0.055080365
20	0xbe07356d	-0.13203974
21	0xbc9099ee	-0.017651524
22	0x3e0d7e5d	0.13817735
23	0xbe2adf2b	-0.16686694
24	0xbd804362	-0.06262852
25	0x3e8b1432	0.27163845
26	0xbe406b9a	-0.18791047
27	0xbd9abdba	-0.07555719
28	0xbd542c5a	-0.05180011
29	0xbe042bfc	-0.12907404
30	0xbe412abb	-0.18863957
31	0x3e741c6c	0.23838967
32	0xbd9d9913	-0.07695212
33	0x3e647d10	0.22313333
34	0x3e7847a7	0.24246083
35	0xbd5a9c91	-0.05337197
36	0x3e081688	0.13289845
37	0x3e9ee605	0.31034866
38	0xbd01bffe	-0.03167724
39	0x3dab312b	0.083589874
40	0xbdd19f3b	-0.10235449
41	0x3e886bd8	0.26644778
42	0xbde51f8a	-0.11187656
43	0xbe23fe84	-0.16015059
44	0x3e7a4f22	0.2444425
45	0x3ea55da6	0.3229801
46	0xbd0cc05d	-0.03436314
47	0xbe015071	-0.12628342
48	0xbd9a62bb	-0.075383626
49	0xbe19cbc9	-0.15019144
50	0x3e267f08	0.16259396
51	0x3da99321	0.08280016
52	0x3e95c8e3	0.29254827
53	0x3e88cfa5	0.2672092
54	0xbd721bd4	-0.05910857
55	0x3db49ef3	0.0881938
56	0x3e88507b	0.26623902
57	0xbdf18eef	-0.117948405
58	0x3e81204e	0.2521996
59	0x3e211d76	0.15733895
60	0x3e8ecae5	0.2788917
61	0x3e9d1309	0.30678585
62	0x3e8ac7fc	0.271057
63	0xbe36bd67	-0.17845689
64	0x3e1fb886	0.15597734
65	0xbe5cdf76	-0.21569619
66	0x3da1a304	0.07892421
67	0xbe8dcd8a	-0.27695876
68	0x3db62dd0	0.08895457
69	0x3e068d73	0.13139896
70	0xbe4de47b	-0.2010669
71	0xbe859beb	-0.26095518
72	0xbe3408e3	-0.17581515
73	0xbe75a975	-0.23990424
74	0x3d8e3549	0.06943757
75	0x3e0ac1b4	0.13550454
76	0xbea87a3d	-0.3290576
77	0xbe18e25f	-0.14930104
78	0xbe88b3d1	-0.2669969
79	0xbe65332d	-0.22382803
80	0xbe991318	-0.2989738
81	0xbea383bc	-0.31936443
82	0x3e167cc3	0.1469603
83	0x3e34533e	0.1760988
84	0x3d460c49	0.04835156
85	0x3e1d3c01	0.15354921
86	0xbe85f711	-0.2616506
87	0x3dfc6724	0.1232436
88	0x3d879270	0.066197276
89	0xbea20429	-0.316438
90	0x3d969ccb	0.07354125
91	0x3e0ee047	0.13952743
92	0x3e1c886f	0.1528642
93	0x3e248b5e	0.1606879
94	0x3df3e8ba	0.119096234
95	0xbdf331fd	-0.11874769
96	0x3e2393cb	0.15974347
97	0xbe87455e	-0.2642011
98	0xbe7f9030	-0.24957347
99	0x3e19fc3c	0.15037626
100	0xbe94929b	-0.290181
101	0xbd8d7e64	-0.06908873
102	0x3e2005e2	0.15627244
103	0xbe908eb0	-0.28233862
104	0x3d822ca7	0.06356173
105	0xbe8b1f1e	-0.27172178
106	0x3db2dda3	0.0873368
107	0xbd0ef226	-0.0348989
108	0xbe08d29c	-0.13361591
109	0xbe1724f4	-0.1476019
110	0x3e103591	0.14082934
111	0x3de67e94	0.112546116
112	0x3db0aae8	0.08626348
113	0x3d743d84	0.05962898
114	0xbe824a99	-0.25447538
115	0xbe4eed2b	-0.2020766
116	0xbe9a8ff3	-0.3018795
117	0xbe25aeca	-0.16179958
118	0x3e2f5612	0.17122677
119	0xbe02501a	-0.12725869
120	0xbea8ec3f	-0.3299274
121	0x3d20d08b	0.039261382
122	0xbe991f6b	-0.29906783
123	0xbea3fd11	-0.32029012
124	0xbe0fa632	-0.14028242
125	0xbe357cb2	-0.17723349
126	0xbe738c88	-0.23784077
127	0x3d339376	0.0438418

outc.conv.bias f4 [2]
0	0x3db97144	0.09054807
1	0x3d30232f	0.043002304

53 f4 [64, 3, 3, 3]
0	0x3f755d56	0.95845544
1	0x3eccef25	0.40026203
2	0x3e20f652	0.15718964
3	0x3eb65bcd	0.35616913
4	0xbe9b4fc7	-0.30334303
5	0x3eded557	0.4352214
6	0xbe6c1b46	-0.23057279
7	0xbf1947e1	-0.59875304
8	0xbe306b60	-0.1722846
9	0xbf0534ab	-0.5203349
10	0x3f47801b	0.7792985
11	0x3f3a10cc	0.7268188
12	0xbf55e049	-0.83545357
13	0xbf6228df	-0.88343614
14	0x3e75c502	0.24000934
15	0xbf288fe4	-0.6584456
16	0xbf3e7000	-0.7438965
17	0x3e97d337	0.29653332
18	0x3f7f3ff0	0.99706936
19	0x3e06a79e	0.13149878
20	0x3f3b263a	0.73105204
21	0xbeef3403	-0.4671937
22	0x3eea45db	0.4575642
23	0x3ecda1cd	0.40162507
24	0x3f085d87	0.5326771
25	0xbf1c59f0	-0.61074734
26	0xbe28ab36	-0.16471562
27	0xbf8b5887	-1.0886391
28	0xbf66b041	-0.9011269
29	0x4002507b	2.0361621
30	0xbef4aa7b	-0.47786316
31	0x3fd77eec	1.6835608
32	0x40679714	3.618596
33	0x40522fe4	3.284173
34	0xc00a1c13	-2.1579635
35	0x4069bde1	3.6522143
36	0xbdb0224c	-0.086002916
37	0x3fd9b3fc	1.7008052
38	0xbfc7649f	-1.5577582
39	0xc07a3b68	-3.9098759
40	0x3f6fde97	0.9369902
41	0xc02b3f37	-2.6757333
42	0xbfbca743	-1.4738544
43	0x401b546d	2.427028
44	0xbf9f54db	-1.2447771
45	0xbdba9b39	-0.091116376
46	0x3fcbc428	1.5919237
47	0x3fdf4ee3	1.7445949
48	0xbf58efa9	-0.8474069
49	0xbfa2eded	-1.2728859
50	0xc04ecc4b	-3.231219
51	0x3f9e9291	1.2388479
52	0xbf534087	-0.82520336
53	0xc003b476	-2.0578895
54	0x3f46b562	0.7762052
55	0x3fa83aac	1.3142905
56	0x3f850352	1.0391638
57	0x3e864261	0.26222518
58	0xbf9556ab	-1.1667074
59	0xbf430776	-0.7618326
60	0x3f3e4473	0.74323195
61	0xbfa354d2	-1.276026
62	0x3f14f288	0.58182573
63	0x3e937dfa	0.2880705
64	0x3f5c942c	0.8616359
65	0x3fad83fb	1.3555902
66	0xbeb9f605	-0.3632051
67	0xbfa6e8f3	-1.303984
68	0xbf3816b4	-0.7190964
69	0x3f17a817	0.5924086
70	0xbf955688	-1.1667032
71	0xbf831230	-1.0239925
72	0x3d5cfad3	0.053950142
73	0x3e9b5d42	0.30344588
74	0xbf9d5dba	-1.2294228
75	0xbfa93fcc	-1.3222594
76	0x3f69e8db	0.91370934
77	0xbf447a72	-0.76749337
78	0xbe162ef9	-0.14666356
79	0x3fb8ac1d	1.4427525
80	0xbdbf233c	-0.09332892
81	0xbe675a41	-0.22593023
82	0xbeb52cd7	-0.35385773
83	0xbf447e53	-0.76755255
84	0xbf11ef25	-0.5700553
85	0xbf75febe	-0.9609183
86	0xbea2132e	-0.31655258
87	0x3ecdfb51	0.40230802
88	0x3f222d00	0.63349915
89	0x3de29603	0.11063769
90	0x3edb8417	0.42874214
91	0x3ded1b74	0.11577502
92	0xbf201234	-0.62527776
93	0xbed75665	-0.420581
94	0x3e816d63	0.25278768
95	0xbd04e267	-0.032442477
96	0xbf2f2977	-0.68422645
97	0x3f08b1fd	0.5339659
98	0xbe68acab	-0.22722118
99	0xbf418592	-0.7559444
100	0x3f3861af	0.72024053
101	0xbcfb0e35	-0.030646423
102	0xbf37bf07	-0.7177586
103	0xbf18b846	-0.5965618
104	0xbef1379f	-0.47112748
105	0xbe33d08e	-0.17560026
106	0x3e26ff5d	0.16308351
107	0x3e155375	0.14582618
108	0xbf1fede3	-0.6247236
109	0xbe289699	-0.16463698
110	0x3e8eb320	0.27871037
111	0x3f4fa081	0.81104285
112	0xbf1c01d6	-0.609403
113	0x3e81b847	0.25335905
114	0x3f817a33	1.0115417
115	0x3f8cd386	1.1002052
116	0x3f00f431	0.50372607
117	0xbfa41558	-1.2819014
118	0xbe19f1e2	-0.15033677
119	0xbec3da87	-0.3825266
120	0x3f11dbad	0.56975824
121	0x3f6e11c3	0.9299585
122	0xbecbbcd4	-0.39792502
123	0x3f3cf31f	0.73808473
124	0x3f9d166f	1.2272471
125	0xbdd5346d	-0.1041039
126	0x3f341131	0.7033873
127	0xbfa65fc7	-1.2997979
128	0x3f0142b9	0.50492436
129	0xbef51541	-0.47867778
130	0xbe823c04	-0.25436413
131	0xbf33d40f	-0.7024545
132	0x3e4f65fb	0.20253746
133	0xbe89ce7f	-0.26915357
134	0x3d2858e0	0.041100383
135	0x3e5a67d9	0.21328677
136	0xbf0000fc	-0.500015
137	0xbf823da8	-1.0175066
138	0x3eb64a05	0.35603347
139	0x3d337584	0.043813244
140	0x3f352b29	0.7076898
141	0xbe932d65	-0.2874557
142	0xbebf08e2	-0.37311465
143	0x3f94c7cc	1.1623473
144	0xbf46dafb	-0.7767789
145	0x3f28da5a	0.6595818
146	0x3f8c19ed	1.0945412
147	0x3db934e6	0.09043293
148	0x3f3a313e	0.7273139
149	0x3f9b833c	1.2149425
150	0x3ea35a72	0.31904942
151	0xbc7713e6	-0.015080428
152	0x3ead15e5	0.33805767
153	0xbf98de77	-1.1942891
154	0xbf924ca7	-1.1429642
155	0xbe0ced4d	-0.13762398
156	0xbfbf7a23	-1.4959148
157	0x3ee4b854	0.4467188
158	0x3f941ebd	1.157188
159	0x3eb10000	0.34570312
160	0x3ee22329	0.4416745
161	0xbf04c17a	-0.5185772
162	0xbf05780a	-0.5213629
163	0xbf16311b	-0.5866868
164	0x3ea2df21	0.3181086
165	0xbebd1c4b	-0.36935648
166	0x3e054840	0.13015842
167	0x3e43e522	0.19130376
168	0xbe2d12a2	-0.16901639
169	0xbf52b0d3	-0.8230106
170	0x3f6551e4	0.8957808
171	0x3f5ec344	0.870167
172	0xbf40c333	-0.7529785
173	0xbf823b55	-1.0174357
174	0xbf2f0f03	-0.6838228
175	0xbf5a23bc	-0.85210776
176	0x3e9f544b	0.31118998
177	0x3e9871cd	0.29774323
178	0xbe5df073	-0.21673755
179	0xbd11551e	-0.035481565
180	0xbec6b440	-0.38809395
181	0xbf507f7b	-0.8144452
182	0xbe537dee	-0.20653507
183	0x3f52c34e	0.8232926
184	0x3e2e01a4	0.16992813
185	0xbad935a2	-0.001657177
186	0xbf78ba5f	-0.9715938
187	0xbf23de8b	-0.6401145
188	0x3f259c15	0.6469129
189	0x3f8b35cc	1.0875793
190	0xbe69b35d	-0.22822328
191	0xbe8baa71	-0.27278474
192	0xbf9aacb3	-1.2083954
193	0x3ee07f3e	0.43847078
194	0xbef61cbc	-0.48068798
195	0x3f34b73a	0.7059208
196	0x3f80c56b	1.0060247
197	0xbf56714f	-0.83766645
198	0x3f4bb01b	0.7956559
199	0x3f43f070	0.76538754
200	0xbe250974	-0.16116887
201	0xbf22d34d	-0.6360367
202	0x3f5caa08	0.8619695
203	0xbf2140da	-0.6298958
204	0x3f3a1144	0.72682595
205	0x3f03751f	0.5135059
206	0xbebef78a	-0.37298232
207	0x3f8608bf	1.0471419
208	0xbdf55dc7	-0.11980777
209	0x3ea924f2	0.33036
210	0xbf00ec0b	-0.50360173
211	0x3f37270c	0.71543956
212	0x3f71b51e	0.9441699
213	0xbe89b42e	-0.2689528
214	0x3d695013	0.05696113
215	0xbe0f9da8	-0.14024985
216	0xbfa1ddcb	-1.2645811
217	0xbfca6388	-1.5811625
218	0xbf93513b	-1.1509165
219	0xbfca0ef3	-1.5785812
220	0xbf9d0435	-1.2266909
221	0xbf24eda2	-0.644251
222	0xbf14b97f	-0.58095545
223	0x3ed4f9b3	0.41596755
224	0x3f39143a	0.7229649
225	0x3fc79c0f	1.55945
226	0xbf3481d5	-0.7051061
227	0x3f981fc4	1.1884694
228	0x3fa3c973	1.2795852
229	0x3fa0c064	1.2558713
230	0x3f59f9d5	0.8514684
231	0xbfe273c0	-1.7691574
232	0xbf9e3ce7	-1.2362336
233	0xbf489583	-0.78353137
234	0xbe93034e	-0.2871346
235	0x3fb431ab	1.4077657
236	0x3d013bab	0.031551044
237	0xbf434071	-0.76270205
238	0x3fd9ffcb	1.7031187
239	0x3fa1e0c4	1.2646718
240	0xbfa1e323	-1.2647442
241	0xbe34a266	-0.17640075
242	0x3f801600	1.0006714
243	0xbf977b7f	-1.1834563
244	0xbdfc8ef0	-0.12331951
245	0xbf801492	-1.0006278
246	0x3f629f0d	0.8852394
247	0x3efaf3e3	0.49014196
248	0x3fa7926a	1.3091557
249	0xbf1e6d21	-0.6188527
250	0x3e42da8b	0.1902868
251	0xbf0d6d17	-0.5524458
252	0xbef94626	-0.48686332
253	0xbf83338d	-1.0250107
254	0x3fbb2683	1.4621128
255	0x3fa04793	1.2521843

54 f4 [64]
0	0xbf69a285	-0.9126361
1	0xbb53d7e0	-0.0032324716
2	0x3f2b8667	0.67001957
3	0x403fc055	2.996114
4	0xbfb6c092	-1.4277518
5	0xbfaa4496	-1.3302181
6	0x403d446b	2.957301
7	0xc0337479	-2.803984
8	0x3fc018a3	1.5007519
9	0x4003a6a2	2.0570455
10	0x3f8cfdce	1.1014955
11	0x3f9b33b3	1.2125152
12	0xc04874d4	-3.1321306
13	0xc04608ab	-3.094279
14	0xc0522345	-3.2834027
15	0xc034fcd2	-2.827931
16	0x3f958854	1.1682229
17	0xbee5ef91	-0.44909337
18	0xbe39bd39	-0.18138589
19	0xbfe55b86	-1.7918556
20	0xc02b1b97	-2.673559
21	0xc052ce68	-3.293848
22	0x404c02ee	3.1876788
23	0xc02ce155	-2.7012532
24	0xbefd91b6	-0.4952523
25	0x3d895a34	0.06706658
26	0x400726ac	2.1117353
27	0x3ec4ef15	0.38463655
28	0x4009a47c	2.1506643
29	0x3f391a38	0.7230563
30	0x3fa0fbc1	1.2576829
31	0xbe58ddfa	-0.21178427
32	0x3fd1e970	1.6399364
33	0x3f51caef	0.8195028
34	0xbfad8676	-1.3556659
35	0xbd25d479	-0.040485833
36	0xbf9b457d	-1.2130581
37	0x3eaf4087	0.34228918
38	0x403e0f2c	2.969676
39	0xc0339f4a	-2.8065972
40	0x3f66c5cf	0.9014558
41	0xbfb57f02	-1.4179385
42	0xc00fa302	-2.2443242
43	0xbf4b7197	-0.794702
44	0x4048fc25	3.1403897
45	0x3f3aac91	0.72919565
46	0xbfdf32dc	-1.7437396
47	0xbfd00052	-1.6250098
48	0xbf2d0895	-0.6759122
49	0xbffda223	-1.9815105
50	0x3f6b59ed	0.9193409
51	0x40206943	2.5064247
52	0xbfdfba1e	-1.7478673
53	0xbe69360e	-0.22774526
54	0xc001ffd6	-2.03124
55	0xbe397519	-0.18111075
56	0xc0504e6c	-3.2547865
57	0x402f825e	2.742332
58	0x3f85d5fd	1.0455929
59	0xc02837c4	-2.6284037
60	0xbffefba3	-1.9920543
61	0x3e976491	0.29568914
62	0xbfed2075	-1.852553
63	0x3fb7e68f	1.4367236

56 f4 [128, 64, 3, 3]
0	0xbbeb1d65	-0.007175135
1	0xbd06b199	-0.032884214
2	0x3c1e3a96	0.009657523
3	0x3c637218	0.013882183
4	0x3d5d6aa7	0.05405679
5	0xbd6eca25	-0.05829825
6	0x3d40bcd5	0.047055084
7	0x3dd32ccc	0.10311279
8	0x3d98ec5a	0.074669555
9	0xbd715b67	-0.05892506
10	0xbdaab410	-0.083351254
11	0x3b03ea9e	0.0020128856
12	0xbd96426b	-0.07336887
13	0x3d150caa	0.03638903
14	0xbd3a5cc4	-0.045498624
15	0xbddcd2db	-0.10782405
16	0x3d85170e	0.06498538
17	0xbdc1394d	-0.094347574
18	0x3cc684fc	0.024233334
19	0x3d4d0cff	0.050061222
20	0x3cbbc9cb	0.02292337
21	0xbc8f35bd	-0.01748168
22	0xbd46fc2d	-0.048580337
23	0xbd0d41c4	-0.034486547
24	0xbcc317eb	-0.023815116
25	0x3da5fed1	0.08105243
26	0x3d377edf	0.044798728
27	0xbdb38904	-0.08766368
28	0x3c6b2996	0.014353177
29	0x3c80a5de	0.015704092
30	0x3dacd72b	0.084394775
31	0xbd82ebca	-0.063926294
32	0x3cc697b9	0.024242269
33	0xbd230cf1	-0.039807264
34	0x3d2c3a82	0.042047985
35	0xbd47d6c9	-0.04878882
36	0x3dae617b	0.08514687
37	0xbb8a933f	-0.004228979
38	0xbd64d8fb	-0.05587099
39	0xbcc2b17a	-0.023766268
40	0xbc46b548	-0.012128182
41	0xbb59147b	-0.003312378
42	0xbd7308ea	-0.059334673
43	0xbd7fc7b7	-0.062446322
44	0x3d24a57b	0.040196877
45	0xbd7d24c7	-0.06180265
46	0xbdee2d73	-0.116297625
47	0x3c115b84	0.008871917
48	0xbd315668	-0.043295294
49	0x3cc8ca8b	0.024510643
50	0xbc161dd7	-0.009162388
51	0xbb0745ac	-0.0020640893
52	0xbc9d4a65	-0.019200513
53	0x3c38b1e4	0.011272881
54	0xbdbedf8b	-0.09319981
55	0x3b8fa0cd	0.0043831826
56	0x3dc75bcb	0.09734305
57	0x3c09ce9f	0.008411079
58	0x3d6614e8	0.05617228
59	0x3de6805a	0.1125495
60	0xbd3bb42a	-0.045826115
61	0xbb0da341	-0.00216122
62	0xbd8ddaf1	-0.069265254
63	0xbc61dc34	-0.013785411
64	0xbcea5c58	-0.028608486
65	0xbd537f7a	-0.051635243
66	0x3d08d6a7	0.033407833
67	0x3d37c78f	0.04486805
68	0x3d11bedc	0.03558241
69	0x3d021a40	0.031763315
70	0x3dd919fe	0.10600661
71	0xbd4916a0	-0.049093843
72	0x3c991a8b	0.018689414
73	0x3dc52d23	0.0962775
74	0xbd9e25b4	-0.07722035
75	0x3c80fb1f	0.015744744
76	0x3da8cee6	0.08242588
77	0x3ddc6f7f	0.10763454
78	0xbe026d5f	-0.12737034
79	0x3d2d2e83	0.042280685
80	0x3de1997e	0.110156044
81	0xbd846303	-0.064641975
82	0xbd39d2bd	-0.04536699
83	0x3d4d8733	0.050177764
84	0xbde2c422	-0.110725656
85	0x3d2d21f2	0.0422687
86	0xbd4ce054	-0.050018623
87	0xbdd182e9	-0.10230047
88	0xbdae9e1e	-0.08526252
89	0x3d8a2657	0.06745594
90	0x3c24a73e	0.010049639
91	0xbda31647	-0.079632334
92	0x3d705941	0.05867887
93	0xbd5748fb	-0.052559834
94	0xbdb9d6db	-0.090741836
95	0x3c6dfffc	0.014526363
96	0xbd858ea1	-0.06521345
97	0xbd8ca05b	-0.06866523
98	0xbd6c7dea	-0.05773727
99	0xbd9b5e6d	-0.0758637
100	0x3d6a3cd9	0.057186935
101	0xbd8d764f	-0.06907331
102	0xbd61406b	-0.054993074
103	0x3dbac022	0.09118678
104	0xbbc1e280	-0.0059168935
105	0xbd326c87	-0.04356053
106	0x3caf3b65	0.021390626
107	0xbddfeaf0	-0.10933483
108	0xbde9473f	-0.11390542
109	0x3cfb5365	0.030679414
110	0x3bb9eac9	0.0056737405
111	0x3d9fe10a	0.07806595
112	0x3c88dd1e	0.016707
113	0x3d9e6fde	0.07736181
114	0xbc1318bf	-0.008978068
115	0xbdac9976	-0.08427708
116	0x3d9829a8	0.0742982
117	0x3d4c1e3b	0.049833518
118	0x3d6be66b	0.05759279
119	0x3d884ab3	0.06654873
120	0xbcc91e43	-0.024550563
121	0x3d7ec8d1	0.062203232
122	0xbc196cba	-0.009364301
123	0xbc11d3a7	-0.0089005595
124	0xbcf27460	-0.029596508
125	0x3d82f250	0.06393874
126	0x3ccb2e77	0.02480243
127	0x3d8e1da7	0.069392495
128	0xbd916d1e	-0.071008906
129	0xbdfe6c1b	-0.12422963
130	0xbda4a1b8	-0.08038658
131	0xbcf4d451	-0.029886397
132	0xbd5490a6	-0.05189576
133	0x3d94fd6f	0.07274901
134	0xbc1c722b	-0.009548704
135	0x3db05557	0.08610027
136	0x3b2ec4fb	0.0026667702
137	0xbd4f49b8	-0.050607413
138	0x3b3f0075	0.002914456
139	0x3d18b866	0.03728523
140	0x3d230800	0.03980255
141	0xbb2eda30	-0.0026680343
142	0x3ced3430	0.028955549
143	0xbcccff43	-0.025024062
144	0x3cc20c57	0.023687525
145	0x3ce731b2	0.028221939
146	0xbcf9a5f4	-0.03047464
147	0xbd4911bc	-0.04908918
148	0x3e108ee3	0.14117007
149	0x3da7c0fd	0.081911065
150	0x3d44889e	0.04798185
151	0x3bebae65	0.0071924203
152	0x3daf4ef7	0.08559983
153	0x3d81cc88	0.06337839
154	0x3d87cc88	0.06630808
155	0x3d2ed2fa	0.04268167
156	0x3cef3a09	0.029202478
157	0x3db3d0b8	0.08780044
158	0x3cd46c9d	0.025930697
159	0xbd12aeac	-0.03581111
160	0x3d10eb24	0.035380498
161	0xbcb001d9	-0.021485256
162	0x3d6d9741	0.058005575
163	0xbd9ece5f	-0.07754206
164	0x3d17eb88	0.037089854
165	0x3d6b2770	0.057410657
166	0x3dfe4ac5	0.12416605
167	0x3c281071	0.010257826
168	0xbc070bf6	-0.008242598
169	0x3da7c29d	0.081914164
170	0x3d98bb2c	0.07457575
171	0x3d9c9a61	0.07646633
172	0x3db30bf8	0.08742517
173	0xbd9b0696	-0.075696155
174	0x3d6b4078	0.05743453
175	0x3c148965	0.0090659605
176	0x3d4494b3	0.047993373
177	0x3d929077	0.07156461
178	0x3d2e76e8	0.042593867
179	0xbcdde7ee	-0.027088132
180	0x3d1b7e27	0.037962105
181	0xbd14e4ee	-0.036351137
182	0xbd95a4d0	-0.07306826
183	0xbc71e0c4	-0.014763061
184	0xbdd0c6c5	-0.10194162
185	0x3bf3df7f	0.0074424143
186	0x3cdb6117	0.026779694
187	0x3d0920c0	0.0334785
188	0x3db729bf	0.08943509
189	0xbdd69b36	-0.10478823
190	0xbd96f0be	-0.07370137
191	0xbce91a7d	-0.028455013
192	0xbd177063	-0.036972415
193	0xbd071379	-0.032977555
194	0x3dab3184	0.08359054
195	0xbb329dea	-0.0027254769
196	0x3d427d69	0.04748288
197	0xbc86eaeb	-0.01646944
198	0x3c720f00	0.014774084
199	0x3d31a08e	0.043366008
200	0xbd5f58ca	-0.054528035
201	0xbcbc582b	-0.02299126
202	0x3d63886a	0.055550016
203	0x3d903f53	0.07043328
204	0xb856ec32	-5.124155e-05
205	0xbd3103ab	-0.04321639
206	0x3d88628a	0.0665942
207	0x3d077736	0.033072673
208	0x3c13526c	0.008991819
209	0xbdd2c433	-0.10291328
210	0x3d207cad	0.0391814
211	0x3c607208	0.013699062
212	0xbd863107	-0.0655232
213	0xbdc0ddd8	-0.09417313
214	0x3d8725d0	0.06599009
215	0x3d61deef	0.055144247
216	0x3d19119a	0.0373703
217	0x3e188a95	0.14896615
218	0xbd13c528	-0.036076695
219	0x3cd33330	0.025781244
220	0x3e0c088a	0.13675132
221	0x3ca11e06	0.019667637
222	0x3c9f30e9	0.019432502
223	0x3c8d8b97	0.017278476
224	0x3d121572	0.035664983
225	0xbdc671c4	-0.09689668
226	0xbe012b6c	-0.1261422
227	0xbcba91c5	-0.022774586
228	0xbd2c3e9d	-0.0420519
229	0xbcb5ffba	-0.022216666
230	0xbc7a38f1	-0.015272365
231	0x3d970121	0.07373262
232	0x3da02a70	0.07820594
233	0xbc6046f7	-0.013688794
234	0xbc95017a	-0.01818918
235	0x3d57124c	0.052507684
236	0xbd21f446	-0.039539598
237	0xbc2db1b2	-0.010601448
238	0xbdd11037	-0.10208171
239	0xbd1e90a8	-0.038712174
240	0x3b2f55ed	0.0026754097
241	0xbd947d74	-0.07250491
242	0xbd8a8c1a	-0.067650035
243	0x3d8ccd4c	0.06875095
244	0x3d4d5537	0.050130095
245	0x3cc3c52f	0.023897735
246	0x3cf74226	0.03018291
247	0x3dca7afa	0.09886737
248	0xbd16e801	-0.03684235
249	0xbd3aa773	-0.04556985
250	0xbd0c387a	-0.034233548
251	0xbbe23e0f	-0.0069043706
252	0xbccec921	-0.02524239
253	0xbc288ea2	-0.010287913
254	0x3cea0e48	0.028571263
255	0xbac30056	-0.001487742

57 f4 [128]
0	0xbe6a203f	-0.22863863
1	0xbe5ea2ba	-0.21741763
2	0x3fc9f150	1.5776768
3	0x3fb644cd	1.4239746
4	0x3e9e6624	0.30937302
5	0x3f08fb7a	0.5350872
6	0x3f215c58	0.6303153
7	0x3f8b6374	1.0889726
8	0xbd1c07a8	-0.03809324
9	0x3f8f94d2	1.1217291
10	0x3f15b5f3	0.5848076
11	0xbf1838be	-0.5946158
12	0x3f2980f8	0.66212416
13	0xbf1acef2	-0.60472023
14	0x3f18374e	0.5945939
15	0xbeb07959	-0.3446758
16	0x3e4d293c	0.20035261
17	0x3f289ed5	0.6586736
18	0xbe889066	-0.26672667
19	0xbe2c090c	-0.16800326
20	0xbf252d15	-0.64521915
21	0x3f064943	0.5245554
22	0xbe9e2885	-0.3089029
23	0xbb43e940	-0.0029893667
24	0x372d8400	1.0342337e-05
25	0x3f80edbb	1.007255
26	0x3fcce1bb	1.6006387
27	0x3e86debe	0.26341814
28	0xbf9b9dc8	-1.2157526
29	0xbf67b7af	-0.90514654
30	0xbf9adf97	-1.2099484
31	0x3f11ed46	0.57002676
32	0x3f54c759	0.8311668
33	0xbe3d287e	-0.18472478
34	0x3f95c032	1.1699278
35	0xbec5229e	-0.38502973
36	0x3fb42440	1.4073563
37	0x3eabe8a2	0.33575922
38	0x3f8a1eba	1.0790627
39	0x3e5e3ab4	0.21702081
40	0xbe4e2724	-0.20132118
41	0x3f924397	1.1426877
42	0xbe87c99d	-0.26521006
43	0x3fade9a5	1.3586928
44	0x3eb0812b	0.34473547
45	0x3e28da3e	0.16489503
46	0x3f5b1083	0.8557207
47	0x3f80f850	1.0075779
48	0x3e9d4d08	0.30722833
49	0xbe882f00	-0.26598358
50	0x3e0e92f6	0.13923249
51	0x3eee9d67	0.46604463
52	0xbf317208	-0.6931462
53	0x3f46b9b8	0.77627134
54	0xbf90d78e	-1.1315782
55	0x3f5aa2b5	0.8540452
56	0x3f2558ad	0.64588434
57	0xbf778dc9	-0.9670072
58	0x3e20dd86	0.15709504
59	0x3e20e036	0.1571053
60	0x3f9fbf3f	1.2480239
61	0x3fe5a789	1.7941753
62	0x3ebf99b5	0.37421957
63	0xbf45c55d	-0.7725428
64	0x3f87b882	1.0603182
65	0x3f76285c	0.96155334
66	0x3f4e5020	0.8059101
67	0xbf93496c	-1.1506782
68	0x3f0ef196	0.5583738
69	0xbe6e393c	-0.2326402
70	0x3f16e52d	0.58943444
71	0xbf850e4b	-1.0394987
72	0xbff2ae9c	-1.8959537
73	0x3f577d28	0.8417535
74	0xbf969fa6	-1.1767471
75	0xbee13969	-0.43989113
76	0x3e112351	0.14173628
77	0x3e865922	0.26239878
78	0xbe9eca0d	-0.31013528
79	0x3ec39d8e	0.38206142
80	0xbdbcdb93	-0.09221568
81	0xbd3789f4	-0.044809297
82	0xbecd87bb	-0.40142617
83	0x3e6efa0e	0.23337576
84	0x3e29c80a	0.16580215
85	0xbf0075a4	-0.50179505
86	0xbf02a551	-0.510335
87	0xbeab866a	-0.33500987
88	0x3fb72a10	1.4309711
89	0x3d78a8ad	0.060707737
90	0x3e4ddf44	0.201047
91	0xbe3e0c7d	-0.18559451
92	0xbe403cb6	-0.1877316
93	0xbf2b14e0	-0.6682873
94	0x3f575a2e	0.8412198
95	0xbef65f89	-0.48119763
96	0xbdd36cd7	-0.10323494
97	0x3f6177a7	0.880732
98	0xbed7946d	-0.42105427
99	0x3efd8348	0.49514222
100	0x3eac6e57	0.33677933
101	0x3f4514a1	0.769846
102	0x3f1463cf	0.57964796
103	0xbe93d638	-0.28874373
104	0xbe21aaad	-0.15787764
105	0x3f7269aa	0.9469248
106	0xbe3de35a	-0.18543759
107	0xbfb211b7	-1.3911656
108	0x3f151e77	0.5824961
109	0x3f466375	0.7749551
110	0xbef4bdd4	-0.47801077
111	0x3f332134	0.6997254
112	0xbef341ba	-0.47511083
113	0x3fb5c94d	1.4202057
114	0x3f939ec8	1.1532831
115	0x3f769dac	0.9633434
116	0x3f849f6d	1.0361153
117	0xbe173660	-0.14766836
118	0xbe83eb55	-0.25765482
119	0x3f24b4fb	0.64338654
120	0xbf8afa1c	-1.0857577
121	0x3ecede9d	0.40404215
122	0xbe567c5c	-0.20945877
123	0xbdb788ae	-0.089616165
124	0xbe27f2a7	-0.16401158
125	0xbd8253dc	-0.06363651
126	0x3bb29ea8	0.005451042
127	0x3e086f97	0.13323818

59 f4 [64, 128, 3, 3]
0	0x3d5fcd7c	0.054639325
1	0x3d26184b	0.04055051
2	0xbcc706f5	-0.02429531
3	0xbc7b11c5	-0.015324061
4	0x3d9b5a37	0.075855665
5	0x3df10974	0.11769381
6	0x3d195fc1	0.037444834
7	0x3ccb20a4	0.024795838
8	0x3d20863d	0.03919052
9	0xbd347a3a	-0.044061877
10	0xbcfdbd07	-0.030973924
11	0x3d96f2df	0.07370543
12	0xbd8f5f51	-0.07000602
13	0x3d7d8954	0.061898544
14	0x3bbafcd2	0.005706408
15	0xbc8121d5	-0.015763203
16	0x3ca59635	0.020213226
17	0x3d8b5371	0.068030246
18	0x3dd04b4d	0.101706125
19	0xbd22f535	-0.03978463
20	0x3b3ecfda	0.0029115588
21	0x3da93291	0.08261598
22	0xbc574529	-0.013139048
23	0xbb829412	-0.0039849365
24	0xbd833abe	-0.064076886
25	0x3d483df3	0.048887204
26	0x3d309e4c	0.043119714
27	0xbd71d73f	-0.059043165
28	0xbd065b73	-0.032802057
29	0xbdcb4db7	-0.09926932
30	0xbd75d505	-0.060017604
31	0xbd95f302	-0.07321741
32	0x3bbba73b	0.0057267225
33	0x3d6636db	0.056204658
34	0x3d67df0e	0.056609206
35	0x3d79aac8	0.060953885
36	0xbd0b11d5	-0.033952553
37	0x3b82f973	0.003997022
38	0x3d560b88	0.05225709
39	0xbdae2876	-0.08503811
40	0x3d02c25a	0.03192363
41	0xbcb49ed7	-0.022048397
42	0xbdbc63e8	-0.09198743
43	0x3cad3459	0.021143125
44	0x3c3983b4	0.011322904
45	0xbd5aac15	-0.053386766
46	0xbd443db6	-0.047910415
47	0xbbb94fcf	-0.005655266
48	0x3c2e8c15	0.010653515
49	0x3d004ee2	0.03132523
50	0xbd6bfffe	-0.05761718
51	0xbd9cb4d1	-0.076516755
52	0x3d7f988a	0.062401332
53	0xbd33e72f	-0.043921646
54	0xbbb578fe	-0.005538105
55	0x3cd532bc	0.026025169
56	0x3caa0e6f	0.020758836
57	0xbd11b82e	-0.035576038
58	0xbd164790	-0.03668934
59	0xbd8e121e	-0.06937049
60	0xbd126743	-0.03574301
61	0xbb9c57af	-0.004771195
62	0x3d8da21a	0.06915684
63	0xbd798f6e	-0.0609278
64	0xbbabfdfb	-0.0052487827
65	0xbd9e6df9	-0.07735819
66	0xbdc2463c	-0.094860524
67	0xbdeb24b2	-0.114816085
68	0x3c4f7609	0.012662419
69	0x3cd5b1f1	0.026085826
70	0x3d049dc5	0.032377023
71	0x3d27116e	0.040788107
72	0xbd494b41	-0.049144033
73	0x3c440585	0.011964207
74	0x3d520838	0.05127737
75	0xbd11cd87	-0.035596397
76	0xb9447ff2	-0.0001873968
77	0xbd2ffd63	-0.042966258
78	0x3deae080	0.11468601
79	0xbce46bae	-0.027883377
80	0x3af2a20d	0.001851143
81	0xbe1dcd34	-0.1541031
82	0xbda44a47	-0.0802198
83	0xbcb1b800	-0.021694183
84	0xbcd55a9f	-0.026044188
85	0xbd586e06	-0.0528393
86	0xbd23247f	-0.039829727
87	0x3cfbad8f	0.030722408
88	0x3cb8ec9c	0.022573762
89	0x3da4cd8d	0.08047018
90	0xbd6fab48	-0.058512956
91	0xbd77bc53	-0.060482334
92	0x3e0a81e6	0.13526115
93	0xbcfdef52	-0.030997906
94	0xbc337667	-0.010953522
95	0xbda40c36	-0.080101416
96	0xbdd3a068	-0.103333294
97	0x3c7dcb3c	0.015490349
98	0x3d4f8196	0.050660692
99	0xbb931f71	-0.004489832
100	0x3c90f71f	0.017695962
101	0xbbd48ab0	-0.0064862594
102	0x3d6552da	0.055987217
103	0xbcf517a3	-0.029918497
104	0xb9455738	-0.00018819876
105	0x3ce46b58	0.027883217
106	0xbbc11e7d	-0.005893527
107	0x3d49bec7	0.049254205
108	0x3d8dfb77	0.06932729
109	0xbdafbd55	-0.08581034
110	0xbc0e97fa	-0.008703226
111	0x3d15392a	0.03643147
112	0xbdd3d10b	-0.10342606
113	0x3c2b839b	0.010468389
114	0x3d9e486b	0.077286564
115	0xbc529d5d	-0.012854901
116	0xbd214c9b	-0.039379697
117	0xbd547166	-0.051865958
118	0xbc9f8ea2	-0.019477192
119	0x3d58fdb8	0.05297634
120	0x3d8e125f	0.06937098
121	0x3cdb6d92	0.026785646
122	0xbb82011c	-0.0039674174
123	0xbbf0e2df	-0.007351264
124	0xbc823f17	-0.015899224
125	0xbd7656c8	-0.060141355
126	0xbdf4c119	-0.11950893
127	0xbd426fd4	-0.04746993
128	0xbd62c524	-0.05536379
129	0xbe05c178	-0.13062084
130	0xbd3acb53	-0.04560406
131	0x3d0a61ce	0.03378468
132	0xbdb2ce6f	-0.0873078
133	0x3b2b123a	0.0026103393
134	0x3b972e07	0.004613641
135	0x3c5ecdbe	0.013598857
136	0x3d52a207	0.051424053
137	0xbc73f3d9	-0.014889681
138	0x3c210158	0.0098269805
139	0x3c97b1e5	0.018517444
140	0x3da2a275	0.079411425
141	0xbbfc1d74	-0.007693941
142	0xbd325087	-0.043533828
143	0x3d496757	0.04917082
144	0x3d27c5f0	0.040960252
145	0x3bb49c5f	0.005511805
146	0xbdcd5f3a	-0.10027929
147	0x3d537766	0.05162754
148	0xbcb66aa1	-0.022267641
149	0x3cb084a0	0.021547616
150	0xbd670776	-0.0564036
151	0xbd5dd42c	-0.05415742
152	0xbb5670f0	-0.0032721125
153	0xbcd0d875	-0.02549384
154	0x3d0a3fc6	0.033752225
155	0x3d56cd28	0.052441746
156	0x3d066cf8	0.032818764
157	0xbc38d0e4	-0.011280272
158	0x3d3498ca	0.044091024
159	0xbd3a374a	-0.045462884
160	0xbc4d73b8	-0.0125397965
161	0x3d6de390	0.05807835
162	0x3d7e15ee	0.062032633
163	0x3d63bc47	0.055599477
164	0xbd11cf3a	-0.035598017
165	0x3d7b4334	0.061343387
166	0x3c633fee	0.0138702225
167	0xbd43e22f	-0.047823127
168	0xbd0a0690	-0.033697665
169	0x3dc97bcc	0.098380655
170	0x3cc1b2b0	0.023644775
171	0xbdc486a6	-0.09595995
172	0xbe159c2e	-0.14610359
173	0xbcb9c4e1	-0.022676887
174	0xbdb5d2ce	-0.088780984
175	0xbd9a5606	-0.07535939
176	0x3b90cdc2	0.0044190595
177	0xbc50b5e8	-0.012738682
178	0xbd2ec4ad	-0.042668033
179	0xbd5a013f	-0.053223845
180	0x3ca03c95	0.019560138
181	0x3ca54781	0.020175697
182	0x3b625c08	0.0034539718
183	0xbd310cd6	-0.043225132
184	0x3db7a202	0.089664474
185	0x3d2e5658	0.042562813
186	0x3d0acf1a	0.033888914
187	0xbd328116	-0.043580137
188	0xbdad75f2	-0.08469762
189	0xbcaf35af	-0.021387903
190	0x3c83517b	0.016030064
191	0x3da55751	0.08073295
192	0xbd907c03	-0.07054903
193	0x3d1aa99b	0.037759405
194	0x3d7ad011	0.061233584
195	0x3c0eec2e	0.008723302
196	0xbcbc6779	-0.022998558
197	0xbca2ccbb	-0.019873014
198	0x3d9061c4	0.07049897
199	0x3d011d32	0.031521983
200	0x3db07bff	0.086174004
201	0x3a3bbbe7	0.00071614835
202	0xbc8b071d	-0.016971165
203	0x3c2f504a	0.010700295
204	0x3cb3493a	0.021885503
205	0xbd7455ef	-0.059652265
206	0xbd24a0f8	-0.040192574
207	0xbd966734	-0.07343903
208	0x3ba0ba3b	0.004905013
209	0xbcd1518a	-0.025551576
210	0x3d2a1009	0.0415192
211	0x3ce3dbc3	0.027814751
212	0xbd2366da	-0.03989301
213	0xbd068a37	-0.032846656
214	0xbd35b5dc	-0.044362888
215	0x3d44e9e5	0.04807462
216	0x3d87ec7c	0.06636903
217	0x3d3a68ed	0.04551022
218	0x3d6eb46e	0.05827754
219	0x3d0e770b	0.034781497
220	0x3db1903b	0.08670088
221	0xbcfd58ff	-0.030926226
222	0x3c2ba20c	0.010475647
223	0x3c9f6bf6	0.01946066
224	0x3c334c12	0.01094343
225	0x3d3ee56f	0.046605524
226	0xbd88bcab	-0.066766106
227	0xbbbbdbad	-0.0057329745
228	0xbd8f5ffb	-0.07000729
229	0xbd08e0a3	-0.033417355
230	0x3c242239	0.010017925
231	0xbd29fe5b	-0.041502338
232	0xbdb9ebfa	-0.09078212
233	0x3d180b3c	0.03712009
234	0x3dedb6d8	0.1160714
235	0xbd29b7b1	-0.041434947
236	0x3dd178d2	0.10228123
237	0xbcf04414	-0.029329337
238	0xbc72c324	-0.014817033
239	0x3daf5c96	0.08562581
240	0x3cf362b5	0.029710153
241	0xbbde8eaa	-0.006791909
242	0x3caf8db7	0.02142988
243	0x3cc015bf	0.02344787
244	0xbd1de242	-0.038545854
245	0x3d50b45d	0.050953258
246	0xbd6fa214	-0.05850418
247	0x3c56fd18	0.013121866
248	0x3db26f2a	0.08712609
249	0x3c7b9c04	0.015357021
250	0x3cacb4bf	0.02108228
251	0x3da17adc	0.07884762
252	0xbd2f55c2	-0.042806394
253	0xbdbc130c	-0.091833204
254	0x3c438917	0.01193454
255	0xbd93598f	-0.07194816

60 f4 [64]
0	0x40032cb7	2.0496042
1	0xbee0ac2e	-0.43881363
2	0xbd598591	-0.053105894
3	0x3dc8bcd3	0.0980164
4	0x3f5436eb	0.828963
5	0x3e050556	0.12990317
6	0xbf4d90c1	-0.80299
7	0x3ef0b423	0.47012433
8	0x3d417bcc	0.047237203
9	0xbd666650	-0.056249917
10	0x3fad7738	1.3552008
11	0x3f24b394	0.64336514
12	0xbf430516	-0.76179636
13	0xbd0fc608	-0.035100967
14	0x3e397c38	0.18113792
15	0x3f7a2d69	0.9772554
16	0xbff1be88	-1.888627
17	0xbfbfa259	-1.497142
18	0xbfd8647e	-1.6905668
19	0x3f5cc638	0.8623996
20	0xbf23d818	-0.6400161
21	0x3fa3d6b1	1.2799894
22	0x3f2318e7	0.6370987
23	0x3f21a953	0.63148993
24	0x3ea8b436	0.3294999
25	0xbfa0b2d6	-1.2554576
26	0x4008afe7	2.1357362
27	0x3f9cee74	1.226027
28	0x3e38f396	0.1806167
29	0xbdf65cfb	-0.12029453
30	0x3fa50a39	1.2893745
31	0x3f3ac8ac	0.7296245
32	0x3f97c6f5	1.1857592
33	0x3eefb8fe	0.46820825
34	0xbe36fe7a	-0.17870513
35	0x4002e353	2.0451248
36	0x3dedd630	0.11613119
37	0x3e6733ac	0.22578305
38	0x3c8de035	0.017318824
39	0x3f0933e7	0.5359482
40	0xbf8d91dc	-1.1060138
41	0x3f2ffabe	0.6874198
42	0xbf2894ba	-0.6585194
43	0xbf0530ec	-0.52027774
44	0x3edfdcf4	0.4372326
45	0xbfe6a1d5	-1.8018137
46	0x4006c86b	2.1059825
47	0x40287e7a	2.6327195
48	0x3f542155	0.8286336
49	0x400088db	2.008353
50	0xbdfa4e20	-0.122219324
51	0xbeec3dcb	-0.46140894
52	0x3f13461f	0.5752887
53	0x3e10e600	0.14150238
54	0x401503ab	2.3283489
55	0x3ca2173e	0.019786473
56	0x3d71d0e6	0.05903711
57	0x3fa92c6c	1.3216681
58	0xbfb0f6e4	-1.3825345
59	0xbf1109d8	-0.56655645
60	0xbe11e8ce	-0.14248964
61	0xbc61ce58	-0.013782106
62	0xbf6fe8f2	-0.9371482
63	0xbf234c16	-0.6378797
